model_store/onet-4b09b161.pt (torch_old, 900685 bytes, 15 tensors)

pre_layer.0.weight f4 [32, 3, 3, 3]
0	0x3dda9536	0.10672991
1	0xbdd52c7c	-0.10408875
2	0x3dd04780	0.101698875
3	0xbd32b994	-0.043634012
4	0x3c81889c	0.01581221
5	0x3e47df85	0.1951886
6	0xbcf31d63	-0.029677099
7	0x3c7a9215	0.015293618
8	0x3dafe48f	0.08588516
9	0xbd9c1c12	-0.076225415
10	0xbd6180da	-0.055054523
11	0xbda57e97	-0.08080786
12	0xbd23b10a	-0.03996376
13	0xbe0231bd	-0.12714286
14	0xbd2bde91	-0.041960303
15	0xbdb3f802	-0.08787538
16	0xbcc9c46a	-0.02462979
17	0xbdeae4f8	-0.114694536
18	0x3d7f6608	0.062353164
19	0x3e0f37d0	0.13986135
20	0x3d66e8f3	0.0563745
21	0x3dc2b41c	0.095070094
22	0x3d695b03	0.05697156
23	0x3d07e69c	0.03317891
24	0xbe24f32b	-0.16108386
25	0x3db66c9c	0.08907434
26	0x3d338ccd	0.04383545
27	0x3e29232e	0.16517326
28	0xbd588705	-0.05286314
29	0xbd3123a5	-0.043246884
30	0x3ea7ae58	0.327502
31	0xbdd017f9	-0.101608224
32	0xbe860fd9	-0.26183966
33	0x3e036f2a	0.12835374
34	0x3e10bd69	0.14134754
35	0xbe869770	-0.26287413
36	0x3d804d36	0.06264727
37	0x3d527185	0.051377792
38	0xbe19cd12	-0.15019634
39	0x3e415778	0.18881023
40	0xbd21edc7	-0.039533403
41	0xbe7849cf	-0.24246906
42	0x3e6f4020	0.23364305
43	0xbc9b432e	-0.018952932
44	0xbe79e566	-0.24403915
45	0x3e4ac326	0.19801006
46	0x3d08e098	0.033417314
47	0xbe1d2579	-0.15346326
48	0x3dd50b2e	0.10402523
49	0xbca9e814	-0.020740546
50	0xbe4be58d	-0.19911785
51	0x3e2330e6	0.15936622
52	0xbc9293a7	-0.017892672
53	0xbd01aae8	-0.03165713
54	0xbdeaacf6	-0.11458771
55	0xbe2bffa4	-0.16796738
56	0xbde39afe	-0.11113547
57	0x3c9925b0	0.018694729
58	0xbd82e239	-0.06390805
59	0x3dc9ec3a	0.0985951
60	0x3e8105de	0.2519979
61	0x3e79927d	0.24372287
62	0x3d8ea89a	0.06965752
63	0xbde033c9	-0.10947377
64	0xbe54121c	-0.20710033
65	0x3da82f46	0.08212142
66	0x3bf8af30	0.0075892434
67	0xbd47d8b9	-0.048790667
68	0xbe1e7aa4	-0.15476471
69	0x3d67f82d	0.056633163
70	0x3de28f7d	0.110625245
71	0x3c60fda0	0.013732344
72	0xbde0784a	-0.10960443
73	0xbdaaac66	-0.08333664
74	0xbdb81803	-0.08988955
75	0xbc7831f1	-0.015148626
76	0x3d1a173e	0.03761982
77	0xbd2e7475	-0.04259153
78	0x3dc90ef0	0.09817302
79	0x3e209c0e	0.1568453
80	0x3d82de96	0.06390111
81	0x3dba86c7	0.09107738
82	0x3e2deb07	0.16984187
83	0x3e52bacb	0.20579068
84	0xbdb7ad82	-0.08968641
85	0x3c66d975	0.014089932
86	0x3d9a8a35	0.07545892
87	0xbc06e2c9	-0.008232781
88	0xbd2a45b8	-0.041570395
89	0xbe26a875	-0.16275199
90	0x3d4bb78d	0.049735595
91	0xbd0c1a34	-0.034204677
92	0xbd0cb0a3	-0.03434814
93	0xbd834171	-0.06408966
94	0xbd62d532	-0.0553791
95	0x3d653b32	0.055964656
96	0xbd34374a	-0.04399804
97	0xbe2ecce0	-0.17070341
98	0xbe4b3ee0	-0.19848204
99	0xbcad4e35	-0.021155456
100	0xbd9d7de3	-0.076900266
101	0x3e228d10	0.15874124
102	0xbd97bfb5	-0.07409612
103	0x3a4e4024	0.0007867834
104	0x3d4def82	0.05027724
105	0x3d1cc782	0.038276203
106	0xbd0b7738	-0.034049243
107	0xbdea8ed0	-0.114530206
108	0x3d29d41b	0.041462045
109	0xbdee177d	-0.11625574
110	0xbda11e1c	-0.07867071
111	0x3dd4bdca	0.10387762
112	0x3c8d797d	0.017269844
113	0x3d6d7abb	0.057978373
114	0x3e144752	0.14480332
115	0xbce12c0b	-0.027486822
116	0x3e1a70ae	0.15082046
117	0xbd004736	-0.031317912
118	0xbdbe625d	-0.09296105
119	0xbc83867d	-0.01605534
120	0xbd14ff54	-0.036376312
121	0xbcaa7b75	-0.020810822
122	0x3c2d3017	0.010570548
123	0x3da52668	0.08063966
124	0x3c118cea	0.008883694
125	0x3e050a76	0.12992272
126	0xbd187f8e	-0.03723102
127	0x3bc166c4	0.005902143
128	0xbcea5956	-0.028607052
129	0xbd8d1d0b	-0.06890305
130	0x3da2b16d	0.079439975
131	0xbde1e4c7	-0.11029964
132	0xbd99533c	-0.07486579
133	0x3d62791b	0.055291276
134	0x3d57421a	0.052553274
135	0x3d06db99	0.03292427
136	0xbdebb0c7	-0.11508327
137	0xbe18f202	-0.14936069
138	0x3d43affc	0.047775254
139	0xbd81c50e	-0.06336413
140	0xbd2f88cd	-0.042855073
141	0x3d319676	0.04335638
142	0x3daecb7f	0.085349075
143	0x3da5519a	0.08072205
144	0xbd08220b	-0.03323559
145	0xbe321bd2	-0.17393425
146	0xbd820e90	-0.06350434
147	0xbdcbcbbd	-0.09950969
148	0xbba387a8	-0.0049905367
149	0xbddf4fdf	-0.10903906
150	0x3cfe045c	0.031007938
151	0x3ddaf444	0.10691121
152	0x3d132592	0.0359245
153	0x39b1f57b	0.00033942968
154	0x3c4a9bb4	0.012366224
155	0x3c54e35c	0.01299366
156	0x3d362102	0.044465072
157	0x3d949681	0.07255269
158	0xbd836089	-0.06414897
159	0x3d62b340	0.055346727
160	0x3e34bce2	0.17650178
161	0x3ce53f35	0.027984241
162	0xbd6eea00	-0.05832863
163	0xbd7912a8	-0.060808808
164	0xbcc4472b	-0.023959717
165	0xbd1536e0	-0.036429286
166	0xbd370994	-0.04468687
167	0x3d1c6cf3	0.03818984
168	0xbc09dfc6	-0.008415168
169	0x3e0fdf17	0.14049946
170	0x3dbf6d07	0.09346967
171	0xbdc92a0a	-0.098224714
172	0x3dff2a98	0.12459296
173	0x3d2bd74b	0.041953366
174	0xbd33d53e	-0.043904535
175	0x3e0ecd84	0.13945585
176	0x3dbba222	0.09161784
177	0x3c7049f8	0.014666073
178	0x3daccd01	0.08437539
179	0x3e2f2f2b	0.17107837
180	0xbdc9d4d0	-0.09855044
181	0xbdc7f1a9	-0.0976289
182	0xbcab7a1b	-0.020932248
183	0xbddf654b	-0.10907992
184	0xbd6491fc	-0.055803284
185	0xbdb1be7e	-0.086789116
186	0xbb898854	-0.00419716
187	0x3cb01431	0.021494003
188	0xbdc936e2	-0.09824921
189	0xbe359ece	-0.1773636
190	0xbe728418	-0.23683202
191	0xbc5a56a9	-0.013326325
192	0xbe06dec6	-0.13170919
193	0x3946aa1c	0.00018946122
194	0x3daa68ef	0.08320796
195	0x3db142f0	0.086553454
196	0x3e725998	0.2366699
197	0x3e228810	0.15872216
198	0xbe61bb64	-0.2204414
199	0xbe63c9d2	-0.22244957
200	0x3d04bc88	0.03240636
201	0xbd9b7265	-0.075901784
202	0xbe192aee	-0.14957783
203	0x3dbab500	0.09116554
204	0x3c16091e	0.009157447
205	0x3e4301b8	0.19043624
206	0x3e03ea82	0.12882426
207	0xbe6cf245	-0.23139293
208	0x3d4aa4e2	0.04947365
209	0x3da1a70e	0.07893191
210	0xbe0351ea	-0.12824216
211	0x3db14f62	0.08657719
212	0x3d9f3e69	0.07775576
213	0x3d75cce6	0.06000986
214	0x3e13789c	0.14401478
215	0x3defc59c	0.11707613
216	0x3d49e015	0.049285967
217	0xbd48132a	-0.0488464
218	0xbe8cb49f	-0.27481553
219	0x3dc7ef8b	0.09762486
220	0x3d608c69	0.054821406
221	0x3cf3a6cf	0.029742626
222	0x3c474852	0.012163239
223	0x3dcee855	0.101029076
224	0xbd8dd25d	-0.06924889
225	0x3be0ccfe	0.0068603745
226	0xbdc322cc	-0.09528121
227	0xbe7ccf95	-0.24688561
228	0x3ddaabf4	0.10677329
229	0xbdcac8ae	-0.09901558
230	0xbc64fb40	-0.013975918
231	0x3d8fa169	0.070132084
232	0x3e004542	0.1252642
233	0x3d7871bb	0.060655337
234	0xbd14be83	-0.0363145
235	0xbde669b5	-0.11250631
236	0xbdac91ed	-0.08426271
237	0x3dfa52d3	0.12222829
238	0x3dc2d0c0	0.09512472
239	0x3c9c955d	0.01911419
240	0x3e328d71	0.17436768
241	0x3d13be28	0.03607002
242	0xbd6da392	-0.05801732
243	0x3d55a28c	0.05215697
244	0xbe4b60b9	-0.19861116
245	0xbe4406c4	-0.19143206
246	0x3d99263a	0.07477994
247	0x3dd28292	0.102788106
248	0xbe17ed30	-0.14836574
249	0x3c9503f9	0.01819037
250	0x3e02503d	0.12725921
251	0x3b3509ab	0.002762417
252	0x3ce212bb	0.027596822
253	0x3b48cd36	0.0030639893
254	0xbd4ccf37	-0.050002303
255	0x3d60eda9	0.05491415

pre_layer.0.bias f4 [32]
0	0xbddc258d	-0.1074935
1	0x3cd6247c	0.026140444
2	0xbd278ab0	-0.040903747
3	0xbe4d2cb9	-0.20036592
4	0xbdd4fa00	-0.10399246
5	0x3d812e37	0.06307643
6	0xbe3fadfc	-0.18718714
7	0x3ca9141a	0.020639468
8	0xb9e9160a	-0.00044457644
9	0x3c92f9c7	0.017941369
10	0xbc296819	-0.01033976
11	0xbc901eb3	-0.017592764
12	0xbdaa6973	-0.08320894
13	0xbd01f815	-0.03173073
14	0xbe35131f	-0.17683075
15	0xbdfed3c8	-0.12442738
16	0xbdf87271	-0.12131203
17	0xbe4e9e68	-0.20177615
18	0x3d599afc	0.05312632
19	0x3e50133a	0.20319834
20	0x3c108b7f	0.008822321
21	0xbde5bcf2	-0.11217679
22	0x3da82222	0.08209635
23	0xbd5041ea	-0.05084411
24	0x3d7e68d5	0.062111694
25	0xbc145a23	-0.009054693
26	0x3d862bec	0.06551346
27	0x3d9167a0	0.07099843
28	0x3d21296d	0.039346147
29	0x3ceb493a	0.02872144
30	0xbdf792b7	-0.120885305
31	0xbcaeb83d	-0.021328086

pre_layer.3.weight f4 [64, 32, 3, 3]
0	0x3d14727b	0.03624199
1	0x3d19c100	0.037537575
2	0x3d3b42c9	0.04571799
3	0x3d0816cc	0.033224866
4	0xbe05f6db	-0.13082449
5	0xbd2c77a4	-0.042106286
6	0xbd845420	-0.06461358
7	0xbe003428	-0.12519896
8	0xbe49f5dd	-0.19722696
9	0x3cd4ac3a	0.02596103
10	0xbd87efef	-0.066375606
11	0xbdaa55ba	-0.08317132
12	0x3d0e61d6	0.034761272
13	0xbdfaf465	-0.12253646
14	0xbc29735e	-0.010342447
15	0xbcb71ece	-0.022353556
16	0xbbad88f8	-0.005295869
17	0x3de4360e	0.111431226
18	0xbc163365	-0.009167527
19	0xbd00592a	-0.031335033
20	0xbe4a89bb	-0.19779103
21	0xbde24a19	-0.11049289
22	0xbe05f8a7	-0.13083135
23	0xbe625faa	-0.22106805
24	0xbdc28526	-0.09498052
25	0xbeb0071e	-0.3438043
26	0xbe8f9a82	-0.28047568
27	0xbd6ab6c3	-0.0573032
28	0xbd043644	-0.032278314
29	0xba3b3922	-0.00071419973
30	0xbe242e8c	-0.16033381
31	0xbd12f536	-0.035878383
32	0x3cb0cee0	0.02158302
33	0xbe205948	-0.15659058
34	0xbe48ae47	-0.19597732
35	0xbc6e2e16	-0.014537355
36	0xbd50dda1	-0.05099261
37	0xbceda554	-0.029009499
38	0xbd79ae84	-0.060957447
39	0xbcd7afe0	-0.02632898
40	0x3b9470b0	0.004530035
41	0x3ce96cc5	0.028494248
42	0x3da2cb80	0.07948971
43	0xbc07ef63	-0.00829682
44	0xbdfa19ad	-0.122119285
45	0xbdec9080	-0.11550999
46	0xbdfb62c9	-0.12274701
47	0xbdbbae3c	-0.09164092
48	0xbdaaca36	-0.0833935
49	0xbe41e8e3	-0.18936495
50	0xbe3eabce	-0.18620226
51	0xbdc8aa3c	-0.09798095
52	0xbdd97306	-0.10617642
53	0xbd86f9c5	-0.065906085
54	0xbdc13ee1	-0.09435821
55	0xbd936931	-0.07197798
56	0x3c75b337	0.014996341
57	0xbb2a8511	-0.0026019255
58	0xbd6beb3f	-0.057597395
59	0x3c5dd51e	0.013539581
60	0xbda09a83	-0.07841971
61	0xbd78da62	-0.06075514
62	0x3d40b085	0.047043342
63	0xbd27ffd1	-0.04101545
64	0xbeb55a20	-0.35420322
65	0xbe02c879	-0.12771787
66	0xbd3586b3	-0.044317912
67	0xbea3d463	-0.31997976
68	0xbec73e7b	-0.38914856
69	0xbd5ab9c1	-0.053399805
70	0xbe1a784e	-0.15084955
71	0xbe6e4a99	-0.23270644
72	0xbd9c2e42	-0.076260105
73	0xbdb51950	-0.088427186
74	0xbe655ae7	-0.22397958
75	0xbe6456b7	-0.22298704
76	0xbe0184bd	-0.12648292
77	0xbe1e429d	-0.15455098
78	0x3cba1541	0.022715213
79	0xbe391bbd	-0.18076988
80	0xbd6de207	-0.058076885
81	0xbd85187c	-0.06498811
82	0xbe08f06d	-0.13372965
83	0xbdf97e6b	-0.121823154
84	0xbe288baf	-0.16459535
85	0xbe0fd247	-0.14045058
86	0xbdd68fcf	-0.10476648
87	0xbdc3e751	-0.095656045
88	0xbb5e8511	-0.0033953825
89	0x3d6688af	0.056282695
90	0xbd36f23e	-0.044664614
91	0x3d05f584	0.032704845
92	0xb976ca23	-0.0002353569
93	0xbe198b70	-0.14994597
94	0xbe2bd7c9	-0.16781534
95	0x3c49c7a3	0.0123156635
96	0xbe3b7b7d	-0.18308826
97	0xbe5941c1	-0.2121649
98	0xbc390052	-0.01129158
99	0xbccbc7f8	-0.024875626
100	0xbcf948a4	-0.030430146
101	0xbdedfc71	-0.11620415
102	0xbd18a321	-0.037264947
103	0xbdd31e84	-0.10308555
104	0xbdeabaa7	-0.11461382
105	0xbda8571f	-0.08219742
106	0xbd4a365b	-0.049368244
107	0xbdeac806	-0.11463933
108	0xbe30ec58	-0.17277658
109	0xbe66c14e	-0.22534677
110	0xbe2736d0	-0.16329503
111	0xbe92e31a	-0.2868889
112	0xbe553c54	-0.20823795
113	0xbde229d7	-0.110431366
114	0xbde53f03	-0.11193659
115	0xbd8ea292	-0.069646016
116	0xbe309604	-0.17244726
117	0x3d272e73	0.04081578
118	0xbd18f883	-0.037346374
119	0x3d97983f	0.074020855
120	0x3d487504	0.04893972
121	0xbd15aafc	-0.036540017
122	0x3c93da84	0.018048532
123	0x3b86b4b8	0.004110899
124	0xbc76f32c	-0.015072625
125	0xbdce6faf	-0.10079896
126	0xbd0ceee8	-0.034407526
127	0xbde31cc0	-0.11089468
128	0xbd707510	-0.05870539
129	0xbd93fc0b	-0.07225808
130	0xbd6a6815	-0.057228167
131	0xbddd45b5	-0.10804311
132	0xbdd725a1	-0.10505224
133	0xbd0e779a	-0.03478203
134	0xbcd7c81c	-0.026340537
135	0xbd443173	-0.04789872
136	0xbcea36c3	-0.028590566
137	0x3cb30532	0.021853063
138	0xbe033fee	-0.12817356
139	0xbd60f6d3	-0.05492289
140	0xbe200961	-0.15628578
141	0xbce7f284	-0.028313883
142	0xbdbf8a3d	-0.09352539
143	0xbdb1da26	-0.08684187
144	0x3d9e5641	0.077312954
145	0xbd617c90	-0.055050433
146	0xbe0055f5	-0.1253279
147	0x3d8c7687	0.06858545
148	0xbca74643	-0.020419246
149	0x3d0a2bdf	0.033733245
150	0x3d6b9827	0.05751815
151	0x3d2c387d	0.04204606
152	0x3db42c81	0.08797551
153	0x3d8bb29c	0.068211764
154	0x3d07ff34	0.033202365
155	0xb939a548	-0.00017704547
156	0x3dc0d94c	0.09416446
157	0x3b742408	0.0037252922
158	0x3cd06bea	0.025442082
159	0xbdac344b	-0.084084116
160	0xbd92df2e	-0.071714744
161	0xbe63bc2f	-0.22239755
162	0xbe0a3304	-0.13496023
163	0xbe136325	-0.1439329
164	0xbe1caad5	-0.15299542
165	0xbe0a98d6	-0.13534865
166	0xbd82d1d3	-0.06387677
167	0xbd449dd3	-0.048002075
168	0xbd87277e	-0.065993294
169	0xbbd09d2d	-0.006366393
170	0xbb74964a	-0.0037321025
171	0xbdeb179b	-0.11479112
172	0xbd258c7e	-0.040417187
173	0xbd97d408	-0.074134886
174	0xbe0204da	-0.12697163
175	0x3b902431	0.0043988456
176	0xbe19a2c0	-0.1500349
177	0xbdcf9e7d	-0.10137651
178	0xbdaeb589	-0.08530719
179	0x3cd6c1e5	0.026215503
180	0x3d8510ac	0.064973205
181	0xbd84c425	-0.06482724
182	0x3e00dd27	0.12584363
183	0x3cbb72d2	0.022881899
184	0xbd804145	-0.06262449
185	0x3d20bbf7	0.039241757
186	0xbcde9266	-0.027169418
187	0xbd81254f	-0.06305944
188	0xbd164bda	-0.03669343
189	0xbd9af166	-0.07565574
190	0xbd50f6a1	-0.051016454
191	0x3e049cbc	0.12950414
192	0xbdd33d96	-0.10314481
193	0xbdd214f9	-0.102579065
194	0x3d6f26b9	0.05838654
195	0xbd79e86f	-0.06101268
196	0xbe85fa95	-0.2616774
197	0x3e112f1c	0.14178127
198	0xbdb80df2	-0.08987035
199	0xbe4d9895	-0.20077737
200	0xbd65dcc5	-0.056118745
201	0xbdd231b5	-0.10263387
202	0xbd8fed8a	-0.07027729
203	0xbce85fc6	-0.02836598
204	0xbdd4ac29	-0.103843994
205	0x3b631a3e	0.0034653093
206	0x3d534814	0.05158241
207	0x3da8ea29	0.082477875
208	0x3c2f1e23	0.0106883375
209	0x3c034745	0.008012597
210	0xbcf1ba21	-0.029507698
211	0xbd296056	-0.04135164
212	0xbcfbb6bc	-0.030726783
213	0x3cc95a41	0.02457917
214	0xbd3004b9	-0.042973254
215	0xbd94b89e	-0.072617754
216	0x3ca4f2e6	0.020135354
217	0xbe1393ad	-0.14411803
218	0xbdfdbe91	-0.12389863
219	0xbe05cdb8	-0.13066757
220	0xbd312942	-0.043252237
221	0xbd35fd49	-0.044431005
222	0xbe28f102	-0.16498187
223	0xbc1b5b97	-0.009482286
224	0xbc89acbe	-0.016806003
225	0x3de234a5	0.110451974
226	0xbe0f0287	-0.13965808
227	0xbc3d0826	-0.011537587
228	0x3d99090d	0.074724294
229	0xbcc08a5d	-0.023503477
230	0x3dcaec96	0.099084064
231	0xbd6902d5	-0.056887466
232	0x3ccac167	0.024750425
233	0xbe196da7	-0.14983235
234	0x3e00212f	0.12512659
235	0x3de6a498	0.112618625
236	0xbb7706d6	-0.0037693284
237	0xbdc78ea0	-0.097440004
238	0xbd4a016c	-0.049317762
239	0xbd202048	-0.039093286
240	0xbdb4ffe9	-0.088378735
241	0xbd3d0f1d	-0.04615699
242	0xbb7149d6	-0.0036817691
243	0xbd17a25b	-0.03702007
244	0xbe295eb9	-0.1654004
245	0xbd91de1e	-0.071224436
246	0xbcdf263e	-0.027239915
247	0x3c8e623f	0.017380832
248	0xbcf14000	-0.029449463
249	0xbd150e38	-0.036390513
250	0x3d2ea5a9	0.042638455
251	0x3e29555c	0.16536468
252	0x3d978caf	0.0739988
253	0x3d46e7af	0.048560794
254	0x3e042417	0.12904392
255	0xbda18c64	-0.078881055

pre_layer.3.bias f4 [64]
0	0x3e0681cb	0.1313545
1	0xbcd5186b	-0.02601262
2	0x3dcf43c3	0.101203464
3	0xbd5f2063	-0.054474246
4	0xbdf18ed7	-0.11794823
5	0xbcadc815	-0.02121357
6	0xbbfcf4e2	-0.007719622
7	0x3d8edcff	0.069757454
8	0xbd0d001e	-0.03442394
9	0x3c826df8	0.015921578
10	0xbb9462fe	-0.0045284024
11	0xbca25647	-0.01981653
12	0x3cfc75a6	0.030817818
13	0xbd04042f	-0.032230552
14	0xba84ca97	-0.0010131177
15	0xbd3483e4	-0.044071093
16	0xbdbd10b1	-0.09231699
17	0xbca459c7	-0.02006234
18	0xbd61ed58	-0.05515799
19	0xbd361ba6	-0.04445996
20	0xbca25bda	-0.019819189
21	0xbd1bdd1c	-0.038052663
22	0x3cc6a3e3	0.02424807
23	0xbd9f9a75	-0.07793132
24	0xbcf45ba5	-0.029828856
25	0x3c6ff951	0.014646844
26	0x3c5bb88b	0.013410698
27	0xbdd1968e	-0.10233794
28	0xbe270a0b	-0.16312425
29	0xbdaa25a0	-0.08307958
30	0xbdb6e896	-0.08931081
31	0xbd9b957e	-0.07596873
32	0x3dd16776	0.10224812
33	0xbd8e66d6	-0.06953208
34	0x3d0a02dd	0.033694137
35	0xbdc72519	-0.09723873
36	0x3c86f141	0.01647246
37	0xbd570541	-0.052495245
38	0x3c96bcf2	0.018400643
39	0x3bd617d4	0.0065336023
40	0x3d95bf29	0.073118515
41	0x3d7b08fa	0.061287858
42	0xbc90df4e	-0.017684605
43	0x3d0495a4	0.03236927
44	0xbde45b07	-0.111501746
45	0xbdc39846	-0.09550528
46	0xbcd2805d	-0.025695974
47	0x3d3c124a	0.04591588
48	0x3b29b7b7	0.0025896856
49	0xbe0ed642	-0.1394892
50	0xbd1548c2	-0.03644634
51	0x3d534ffd	0.051589955
52	0x3bdc18f9	0.006716844
53	0x3c814812	0.015781436
54	0x3cf926df	0.030414043
55	0x3ab2c08b	0.0013637705
56	0xbd9e86ff	-0.07740592
57	0x3cc0e3af	0.023546068
58	0x3d999972	0.074999705
59	0x3d3e922a	0.04652611
60	0x3d1a8043	0.037719976
61	0xbd10515d	-0.035233844
62	0x3c5fd37d	0.013661263
63	0xbd10de38	-0.035368174

pre_layer.6.weight f4 [64, 64, 3, 3]
0	0x3d87dcf7	0.066339426
1	0x3d84f7cd	0.06492577
2	0x3daea1c2	0.085269466
3	0x3caf47d4	0.021396555
4	0x3dbdb938	0.09263843
5	0xbd918931	-0.07106245
6	0xbd6b393c	-0.05742763
7	0x3c4adee2	0.012382241
8	0xbd6345dd	-0.05548655
9	0x3d8bc8db	0.068254195
10	0x3d2ae4fa	0.041722275
11	0xbd7ada5c	-0.0612434
12	0x3cc7bcac	0.024381958
13	0xbd35cf4b	-0.044387143
14	0xbe318246	-0.17334852
15	0xbd959a18	-0.07304782
16	0xbdfbd64b	-0.122967325
17	0xbdc92f8e	-0.098235235
18	0xbd894d23	-0.06704166
19	0xbe2f5100	-0.17120743
20	0x3d111ff1	0.035430852
21	0x3d115efa	0.035490967
22	0xbda77bd2	-0.08177914
23	0x3cbf16f5	0.023326376
24	0x3e02ed33	0.12785797
25	0x3e1d3055	0.15350468
26	0x3e43cc30	0.1912086
27	0x3db9d4ee	0.09073816
28	0xbd36cd16	-0.04462918
29	0xbc4d1d4a	-0.01251919
30	0x3e4919ca	0.19638744
31	0x3d11baf4	0.035578683
32	0xbc37b35e	-0.011212198
33	0x3d85e130	0.06537092
34	0x3e41919b	0.189032
35	0xbd04a9b8	-0.03238842
36	0xbe1cee0a	-0.1532518
37	0x3d1d8ae2	0.038462527
38	0xbdce5c17	-0.100761585
39	0xbe12acd4	-0.14323741
40	0xbe1d2114	-0.1534465
41	0xbe0b3c4c	-0.1359722
42	0x3d35e476	0.04440733
43	0xbd4d15c4	-0.050069585
44	0x3c8d4180	0.017243147
45	0xbc20b5aa	-0.009808937
46	0x3c8c5fd2	0.017135534
47	0xbda85bc4	-0.08220628
48	0xbdaa68e0	-0.083207846
49	0xbdd26707	-0.10273557
50	0xbdd77cf3	-0.10521879
51	0xbd235906	-0.03987982
52	0xbd898dc5	-0.067164935
53	0x3ddd3785	0.10801605
54	0x3b41abe4	0.0029551918
55	0x3e5a5cf6	0.21324524
56	0x3dd00aba	0.10158296
57	0xbd09eeef	-0.03367513
58	0x3cc97afc	0.024594776
59	0x3d5ce13f	0.05392575
60	0xbd413706	-0.047171615
61	0xbd60804a	-0.054809846
62	0xbd1d9131	-0.038468543
63	0x3da0577d	0.07829187
64	0x3dab840e	0.08374797
65	0x3dcc4a90	0.09975159
66	0xbddc175e	-0.107466444
67	0xbd010d57	-0.031506862
68	0xbd2db99e	-0.042413346
69	0x3cd72e92	0.026267324
70	0xbd530ef2	-0.051527925
71	0xbdc31991	-0.09526361
72	0x3de25edb	0.110532485
73	0xbc1717f6	-0.009222021
74	0xbcf3b4dc	-0.029749326
75	0x3e3ad811	0.18246485
76	0xbd593ba6	-0.0530354
77	0xbe366514	-0.17811996
78	0x3e2ae02d	0.16687079
79	0x3d6c1925	0.057641167
80	0x3d2e66a4	0.042578354
81	0x3e157017	0.1459354
82	0x3d686bca	0.05674342
83	0xbcd285ac	-0.025698505
84	0x3db1f7b7	0.08689826
85	0xbd1445b2	-0.03619928
86	0xbd05438f	-0.032535132
87	0xbdd9c058	-0.1063239
88	0x3d734d83	0.059400093
89	0xbc5436fa	-0.012952561
90	0xbd641e2e	-0.055692844
91	0x3c1f4dee	0.00972317
92	0xbdaa723d	-0.083225705
93	0x3c568e68	0.013095476
94	0xbd260e38	-0.040540904
95	0xbcebe092	-0.028793607
96	0xbdff98d4	-0.124803215
97	0x3be3624c	0.006939208
98	0xbdb3f944	-0.08787778
99	0x3d97f084	0.074189216
100	0x3e0bf6e5	0.13668402
101	0xbd61d11a	-0.055131055
102	0xbd163bf7	-0.03667828
103	0x3cfcaaf0	0.030843228
104	0x3d37a54f	0.044835385
105	0x3e71de4d	0.23619957
106	0x3e0960c5	0.13415821
107	0xbe430a10	-0.19046807
108	0xbd82dbd8	-0.06389588
109	0xbd8dc5a0	-0.069224596
110	0xbcd46888	-0.02592875
111	0xbe187865	-0.14889677
112	0xbe79ea21	-0.2440572
113	0xbe522d14	-0.20525008
114	0x3e3773de	0.17915294
115	0xbcfac7d4	-0.030612864
116	0xbd4f737b	-0.05064724
117	0x3c803ffb	0.015655508
118	0xbcc95d63	-0.024580663
119	0xbe304c7c	-0.17216676
120	0xbdea52b6	-0.11441557
121	0xbd7bade8	-0.061445147
122	0xbe5240d4	-0.20532542
123	0x3d033862	0.032036193
124	0xbca1c249	-0.019745963
125	0xbe27c193	-0.16382436
126	0x3df2d3f9	0.11856837
127	0x3e3b707b	0.18304627
128	0x3e1a49b4	0.15067178
129	0x3e043d36	0.12913975
130	0xbd2a5ff5	-0.041595418
131	0xbd5400f0	-0.051758707
132	0xbd0a5ef3	-0.033781957
133	0x3e1b5081	0.15167429
134	0xbe2add33	-0.16685943
135	0xba84243d	-0.0010081601
136	0xbe350afd	-0.17679973
137	0xbdc4ae67	-0.09603577
138	0xbdbc90a2	-0.09207274
139	0xbda31248	-0.07962471
140	0xbdfbb2ae	-0.1228994
141	0xbbcc87a3	-0.006241755
142	0xbe113e69	-0.14183964
143	0xbc17a578	-0.009255759
144	0x3df9c173	0.12195101
145	0x3deb27df	0.11482214
146	0x3d25f405	0.04051592
147	0x3e3298de	0.17441127
148	0xbe436724	-0.19082314
149	0xbdb04c50	-0.086083055
150	0x3dd6b5a2	0.104838625
151	0x3d1537c4	0.036430135
152	0xbe1d1ba3	-0.15342574
153	0xbcec493a	-0.02884351
154	0xbd2f1788	-0.04274705
155	0xbe2f99f9	-0.1714858
156	0xbd46bf25	-0.048522133
157	0xbdefc709	-0.11707885
158	0xbe5dab9f	-0.216475
159	0x3d6afea6	0.057371758
160	0x3d1dc668	0.038519293
161	0x3cf9250c	0.030413173
162	0xbe51b2ef	-0.20478414
163	0x3d4e2d9d	0.05033647
164	0xbdda9060	-0.106720686
165	0xbd9df2f1	-0.07712353
166	0x3d10e5a3	0.03537525
167	0x3dab6673	0.0836915
168	0x3dc4a2f0	0.0960139
169	0xbd8ea22e	-0.06964527
170	0x3d8691d3	0.065707825
171	0x3da5c792	0.08094706
172	0x3c363122	0.011120113
173	0x3d6e9165	0.058244128
174	0xbbfaff8e	-0.007659859
175	0xbd173e77	-0.036924805
176	0xbd04a9f7	-0.032388654
177	0x3de39c79	0.11113829
178	0x3d941b7d	0.072318055
179	0x3c2b7d77	0.010466925
180	0x3e1f33c3	0.1554709
181	0x3d59db9d	0.053187955
182	0xbc5ce196	-0.013481518
183	0x3e2ae2a9	0.16688026
184	0x3dbc814c	0.09204349
185	0xbc12948b	-0.008946548
186	0x3eb9cb0b	0.36287722
187	0x3e3bed2d	0.18352194
188	0xbd802107	-0.062562995
189	0x3d8f0c08	0.06984717
190	0x3c294307	0.010330922
191	0xbd3436eb	-0.043997686
192	0x3e01eba6	0.12687549
193	0xbc689160	-0.014194816
194	0xbd3c8730	-0.046027362
195	0x3dc0b469	0.094094105
196	0x3dd7eade	0.10542844
197	0xbe48b5c7	-0.19600593
198	0xbe0d9d1b	-0.13829462
199	0xbe4b88fc	-0.19876474
200	0xbd527a01	-0.051385883
201	0xbbdca260	-0.006733224
202	0xbe4653fa	-0.19367972
203	0x3cb9dddd	0.0226888
204	0xbe82c352	-0.25539643
205	0xbd89695f	-0.06709551
206	0x3d7cd9a6	0.061731003
207	0x3b504fa4	0.003178575
208	0x3e0d2d92	0.13786915
209	0x3e0f647b	0.14003174
210	0xbcf0a166	-0.029373836
211	0x3b0d1c77	0.002153186
212	0xbd0cf510	-0.034413397
213	0x3dbebb29	0.09313042
214	0xbddb854f	-0.10718786
215	0xbd7a8b98	-0.061168283
216	0xbc13feb5	-0.009032895
217	0xbbdfa30e	-0.0068248576
218	0xbdd8ff0d	-0.10595522
219	0xbd94e2f9	-0.07269854
220	0x3d8e639e	0.06952594
221	0x3db3cc4b	0.087792
222	0x3dc6f289	0.09714229
223	0xbd7d2dce	-0.06181126
224	0xbdeb8846	-0.115006015
225	0xbe1ac36f	-0.15113614
226	0x3d13abfa	0.03605268
227	0x3dd9fcda	0.10643931
228	0xbd859d93	-0.065241955
229	0xbd3039c5	-0.043023843
230	0x3b4a4b09	0.0030867478
231	0xbe77c7d5	-0.24197324
232	0xbe08d3f4	-0.13362104
233	0xbe003ecc	-0.12523955
234	0x3d18f52a	0.03734318
235	0x3e35ae47	0.17742263
236	0x3c751131	0.014957712
237	0xbd9527f4	-0.07283011
238	0x3dac9659	0.08427114
239	0xbd5380d9	-0.05163655
240	0x3dffd303	0.12491419
241	0x3ded6416	0.115913555
242	0xbcd9b519	-0.026575612
243	0xbe8a8152	-0.2705179
244	0xbdcaeb24	-0.09908131
245	0xbdf74d9f	-0.12075352
246	0x3dee0076	0.11621182
247	0xbcb25d70	-0.02177307
248	0x3d63e02c	0.05563371
249	0x3d2a77b1	0.041618053
250	0xb6e22ba3	-6.740405e-06
251	0xbd5f0837	-0.054451194
252	0xbd6718a0	-0.05641997
253	0x3dea2d57	0.11434429
254	0xbdc81c05	-0.09770969
255	0xbe29797b	-0.16550247

pre_layer.6.bias f4 [64]
0	0xbd880eeb	-0.066434704
1	0xbd14e21b	-0.036348443
2	0xbc2f2446	-0.010689801
3	0xbbe2d8cb	-0.0069228164
4	0xbe4c5259	-0.19953288
5	0xbd682571	-0.056676332
6	0xbc424c0a	-0.011858949
7	0xbdcbf11d	-0.09958098
8	0x3dcd6be4	0.10030344
9	0x3b367ba5	0.0027844694
10	0x3c331b99	0.010931873
11	0xbdb0fa9f	-0.08641552
12	0xbd90311c	-0.07040617
13	0xbe3295ed	-0.17440005
14	0xbd3fbb74	-0.04680963
15	0xbd965f76	-0.073424265
16	0x3cb14452	0.021639023
17	0xbdac9c7c	-0.084282845
18	0x3c61cdc0	0.013781965
19	0xbd606fd1	-0.054794136
20	0xbdb302c3	-0.08740761
21	0xbdf9e45e	-0.12201761
22	0xbc5c0ba8	-0.013430513
23	0xbd782266	-0.06057968
24	0x3d056f00	0.03257656
25	0xbcf1adaa	-0.029501755
26	0x3c67cec6	0.01414842
27	0x3dc2e886	0.095170066
28	0xbd4f00e2	-0.05053795
29	0x3b2aabd8	0.0026042368
30	0xbbc3ab1d	-0.005971326
31	0xbc79971a	-0.015233779
32	0xbb84b6d1	-0.0040501137
33	0xbda1e753	-0.0790545
34	0x3cfaebcd	0.030630017
35	0xbd93e61d	-0.07221625
36	0x3d224deb	0.03962509
37	0xbc7dbccd	-0.015486908
38	0xbda476a8	-0.080304444
39	0xbc925a0e	-0.017865207
40	0x3c491816	0.012273809
41	0xbd596dd8	-0.05308327
42	0xbe1c8faa	-0.15289178
43	0x3d4f8448	0.050663263
44	0xbd536bf9	-0.051616643
45	0xbe2c3976	-0.16818795
46	0x3d725b77	0.05916926
47	0xbcf399e6	-0.02973647
48	0xbe4a9918	-0.19784963
49	0xbdbebaf1	-0.09313
50	0x3e02c0e0	0.12768888
51	0x3cec139c	0.028817944
52	0xbd80a09a	-0.06280632
53	0x3d4c2371	0.049838487
54	0x3de3d4bb	0.111245595
55	0x3b7e3449	0.0038788489
56	0x3e1e8328	0.1547972
57	0xbda4cf65	-0.0804737
58	0x3cf6224b	0.030045649
59	0x3c743139	0.014904314
60	0xbd5f02e1	-0.054446105
61	0xbe2fa910	-0.17154336
62	0x3becf2a8	0.0072310753
63	0xbe4991c1	-0.19684507

pre_layer.9.weight f4 [128, 64, 2, 2]
0	0x3d3c4b34	0.045970157
1	0x3e173425	0.14765985
2	0xbd3149e1	-0.043283347
3	0xbd021764	-0.03176059
4	0xbdaf82a5	-0.0856984
5	0xbd5a1f63	-0.05325259
6	0xbe0fdca4	-0.14049011
7	0xba921606	-0.001114548
8	0xbd8e1c82	-0.06939031
9	0xbcd4e1b3	-0.025986528
10	0xbea9f2f5	-0.33193174
11	0xbe922fbc	-0.28552043
12	0xbdcd1f8e	-0.10015784
13	0xbdb0d2d9	-0.08633966
14	0xbe3816d3	-0.17977457
15	0x3dc3fca8	0.09569675
16	0x3dee39fb	0.11632153
17	0x3c54cc48	0.012988158
18	0xbcd02c04	-0.025411613
19	0x3cd3877b	0.025821438
20	0xbe1d4c4b	-0.15361135
21	0xbd139f04	-0.03604032
22	0x3ceee306	0.029160988
23	0xbda95401	-0.082679756
24	0xbcf09533	-0.029368019
25	0xbe453330	-0.19257808
26	0x3c1c94ce	0.009556962
27	0xbdd2d2d8	-0.102941215
28	0x3d74b99f	0.059747335
29	0xbd396401	-0.045261387
30	0xbb20a60b	-0.0024513032
31	0xbe098922	-0.13431218
32	0xbd44ee70	-0.048078954
33	0xbce66f9c	-0.028129391
34	0x3d43d65d	0.047811855
35	0x3c131e20	0.00897935
36	0x3deec4f9	0.11658663
37	0xbdcf9725	-0.101362504
38	0x3ced7460	0.028986156
39	0xbd7479db	-0.059686523
40	0xbd9bbef1	-0.076047786
41	0x3d2f0cc7	0.042736795
42	0xbe1c2acf	-0.15250705
43	0x3c1148b8	0.008867435
44	0xbe30c36e	-0.1726205
45	0x3d9e7bf0	0.07738483
46	0xbb0d75d5	-0.0021585126
47	0xbdbf8f53	-0.09353509
48	0x3df7ff2c	0.12109217
49	0x3e155e6f	0.14586805
50	0x3d7b99b0	0.061425865
51	0xbe3eb76d	-0.18624659
52	0xbda1a102	-0.07892038
53	0xbe1f23b4	-0.15540963
54	0xbd8b95bc	-0.06815669
55	0x3d4a762d	0.049429107
56	0x3d93c03e	0.07214402
57	0x3e05867e	0.13039586
58	0x3dccceef	0.10000407
59	0xbe047f82	-0.12939265
60	0xbb99f310	-0.0046981648
61	0xbd45def3	-0.048308324
62	0x3e0b729e	0.13617942
63	0xbd41ef6c	-0.04734747
64	0xbde37068	-0.11105424
65	0xbe81f257	-0.25380203
66	0x3ca6489c	0.020298295
67	0xbdfb4da4	-0.12270668
68	0xbda8ccff	-0.08242225
69	0xbe1b385d	-0.1515822
70	0xbb8afd5c	-0.0042416286
71	0x399f379d	0.00030368278
72	0xbdce5a17	-0.10075777
73	0xbe3b6b25	-0.18302591
74	0x3d89307f	0.06698703
75	0x3d974792	0.07386698
76	0xbe164d1f	-0.14677857
77	0x3cfda5a1	0.030962767
78	0x3d84a7a6	0.06477289
79	0xbd9afb62	-0.07567479
80	0x3dec5e0c	0.115413755
81	0x3dc73b94	0.097281605
82	0x3a192905	0.0005842599
83	0x3e1ef61d	0.15523572
84	0xbd9989c4	-0.0749698
85	0xbd8fa2d5	-0.070134796
86	0xbd033342	-0.032031305
87	0xbe7205af	-0.2363498
88	0xbddf3834	-0.10899392
89	0xbdb7cf86	-0.08975129
90	0xbc56e717	-0.01311662
91	0x3dca4fbd	0.0987849
92	0x3e175376	0.14777932
93	0x3db880f3	0.0900897
94	0x3e005614	0.12532836
95	0x3c4ec246	0.012619561
96	0xbd47dfca	-0.048797406
97	0x3da8437b	0.08215996
98	0x3d1c403e	0.038147204
99	0xbc1fd3ca	-0.009755084
100	0xbd2a2c26	-0.04154601
101	0xbc05b81a	-0.008161569
102	0x3d5d84f6	0.05408188
103	0xbe0b0d84	-0.13579375
104	0x3d8e4563	0.06946828
105	0x3ca48dd1	0.020087155
106	0x3b4bbc6c	0.003108765
107	0xbd5f45a4	-0.054509774
108	0xbdbd1de0	-0.09234214
109	0x3dbc9139	0.092073865
110	0x3e19ae7e	0.1500797
111	0x3c76e94f	0.015070274
112	0xbd8237de	-0.06358312
113	0x3dd3e59f	0.10346531
114	0xbd0166e5	-0.03159227
115	0x3caf321e	0.021386202
116	0x3d159ef0	0.036528528
117	0xbd9defe0	-0.07711768
118	0xbe88d386	-0.2672388
119	0xbe58fbe6	-0.21189842
120	0xbd9515e2	-0.072795644
121	0xbe022916	-0.12710986
122	0xbc90a9ec	-0.01765915
123	0xbd511cc1	-0.051052812
124	0xbd90c6a2	-0.07069136
125	0xbe062eb5	-0.13103755
126	0xbdfd9d6f	-0.12383544
127	0xbd8cd52e	-0.06876598
128	0x3d630b07	0.05543044
129	0x3dedb1c1	0.116061695
130	0x3db8443e	0.08997391
131	0xbc1bd18b	-0.009510408
132	0x3c3b198c	0.011419665
133	0xbd5b92b2	-0.053606696
134	0xbcf83314	-0.030297793
135	0xbe16d1ea	-0.14728513
136	0x3cddb6e1	0.027064743
137	0x3e1e4e90	0.15459657
138	0xbd7d5b55	-0.06185468
139	0x3de6311b	0.11239835
140	0xbdd566f2	-0.10420026
141	0x3e185411	0.14875819
142	0x3d9b8c59	0.075951286
143	0x3b67546b	0.003529812
144	0xbbf09560	-0.0073420256
145	0xbbf17d96	-0.0073697073
146	0xbce60a50	-0.02808109
147	0xbd53f1ef	-0.051744398
148	0xbc0491d7	-0.008091412
149	0xbcd4984d	-0.025951529
150	0xbe6937ca	-0.22775188
151	0xbe5a74bb	-0.21333592
152	0x3d79bcbf	0.060971018
153	0x3d83981e	0.064254984
154	0xbd601d8f	-0.05471569
155	0x3d19ac58	0.037517875
156	0x3ca602c8	0.020264998
157	0xbdabfc0c	-0.083976835
158	0xbd20b2a9	-0.039232884
159	0xbca13cdb	-0.019682338
160	0xbdaab680	-0.0833559
161	0x3d04d6af	0.0324313
162	0xbccab244	-0.024743207
163	0x3da8e700	0.08247185
164	0x3d224913	0.03962047
165	0xbe1f25b3	-0.15541725
166	0x3e1a6dc8	0.1508094
167	0xbd8441ef	-0.06457888
168	0xbdbcc7da	-0.09217806
169	0xbdb84316	-0.089971706
170	0x3e020f60	0.12701178
171	0x3dc6b859	0.0970313
172	0xbdb696e5	-0.089154996
173	0xbeb32692	-0.34990364
174	0x3e4412db	0.19147818
175	0xbd839288	-0.06424433
176	0xbd3d2d5f	-0.046185847
177	0x3e079a3d	0.13242431
178	0xbc49ab4f	-0.01230891
179	0xbd1e2329	-0.03860775
180	0x3c054d78	0.008136146
181	0x3de3d014	0.11123672
182	0xbd77b6ee	-0.06047719
183	0x3e184958	0.14871728
184	0xbe1316c2	-0.1436415
185	0xbe2141cc	-0.15747756
186	0x3ba31ee8	0.0049780495
187	0x3cac009d	0.020996386
188	0xbdc9fdd0	-0.09862864
189	0x3d26d118	0.04072675
190	0x3df26d55	0.1183726
191	0xbe80261e	-0.2502908
192	0x3c99366d	0.01870271
193	0x3d4a8ab3	0.04944868
194	0xbb6b9ae3	-0.0035950474
195	0xbdb1c10e	-0.086794004
196	0x3cdec89d	0.02719527
197	0xbd6d0dc8	-0.05787447
198	0x3c2e2549	0.010629007
199	0x3b8e7e59	0.004348558
200	0xbc5da383	-0.013527754
201	0x3be17ea9	0.006881554
202	0xbe0045ab	-0.12526576
203	0xbdd27114	-0.10275474
204	0xbd40cfa5	-0.047073025
205	0x3d05b3b5	0.032642085
206	0x3e304d35	0.17216952
207	0xbd83855c	-0.06421921
208	0x3d0f80bc	0.03503488
209	0xbcf42173	-0.029801106
210	0x3e0377ff	0.12838744
211	0xbd8c95a4	-0.06864479
212	0xbe3bbee1	-0.18334533
213	0x3d7850b6	0.060623847
214	0xbd966cae	-0.07344948
215	0x3bd02e5e	0.0063531836
216	0xbdad5399	-0.084632106
217	0x3cc14b46	0.023595463
218	0xbd9bc55d	-0.076060034
219	0xbccebec2	-0.025237445
220	0x3cd9a13e	0.026566144
221	0x3d222f38	0.039595813
222	0x3dc3c825	0.09559659
223	0xbccff7c9	-0.025386708
224	0x3d691358	0.056903213
225	0xbdd32412	-0.10309614
226	0x3dcb165a	0.099163726
227	0x3b6f7cbc	0.0036542853
228	0x3c93dcbf	0.018049596
229	0x396c9012	0.00022560384
230	0xbdea24c7	-0.11432796
231	0xbd9dd4ce	-0.07706605
232	0x3df3d858	0.11906499
233	0x3dad9a44	0.084766895
234	0xbdb561a2	-0.088565126
235	0x3e21c616	0.1579822
236	0xbdfcb701	-0.12339593
237	0x3d3a8a00	0.045541763
238	0x3d21e0b3	0.03952093
239	0x3c59a84d	0.013284755
240	0x3d94c227	0.07263594
241	0xbb3162ce	-0.0027066949
242	0xbdcc7e80	-0.099850655
243	0x3cad2f62	0.021140758
244	0x3d74ac72	0.05973477
245	0xbb29afd8	-0.0025892165
246	0x3d1bd2a6	0.038042687
247	0xbcba277e	-0.02272391
248	0xbd5eafd3	-0.054366898
249	0x3e0a9c60	0.13536215
250	0x3d723dd7	0.059141006
251	0x3e23eefd	0.16009136
252	0x3d035cf2	0.03207106
253	0xbd9f37f3	-0.07774343
254	0xbdf30043	-0.11865284
255	0xbe1408ff	-0.14456557

pre_layer.9.bias f4 [128]
0	0x3e0b27a2	0.13589337
1	0x3b9e85ec	0.004837742
2	0xbd01d0e9	-0.031693373
3	0xbbf1ac3e	-0.007375269
4	0xbd935170	-0.07193267
5	0xbd809707	-0.06278806
6	0x3da8b489	0.08237559
7	0x3dcbf39f	0.099585764
8	0xbdc8125c	-0.09769127
9	0xbca841d1	-0.020539196
10	0x3d8d8b95	0.06911389
11	0x3daee584	0.085398704
12	0xbca727c1	-0.020404698
13	0x3e036736	0.1283234
14	0xbdb01ad2	-0.085988656
15	0xbdc50d3e	-0.09621666
16	0x3d8a4e50	0.06753218
17	0x3c6961fe	0.014244555
18	0x3cf83ac5	0.030301461
19	0xbe14d043	-0.1453257
20	0x3d700af2	0.05860419
21	0x3ceaa20d	0.028641725
22	0x3e3e6f6b	0.1859719
23	0xbd98e70b	-0.07465943
24	0x3de69851	0.11259521
25	0x3d51eac0	0.051249266
26	0x3db71fc6	0.08941607
27	0x3d768284	0.060183063
28	0xbd305c51	-0.04305679
29	0xbd9de1c9	-0.07709081
30	0x3dd033fc	0.10166165
31	0x3d48b877	0.049004044
32	0x3e58f1d8	0.21186006
33	0xbcaae792	-0.020862374
34	0xbe0c89e3	-0.13724475
35	0xbba414e6	-0.005007374
36	0x3d87f523	0.06638553
37	0x3d5b26b3	0.053503703
38	0xbd1153ea	-0.035480417
39	0xbdb40f0c	-0.087919325
40	0x3daf736a	0.08566935
41	0xbd1d06f9	-0.038336728
42	0x3d898a54	0.06715837
43	0xbd4a0f87	-0.049331214
44	0x3d75e351	0.06003124
45	0xbdf8b68c	-0.12144193
46	0x3e575dd7	0.21031891
47	0xbe0ebf4e	-0.13940164
48	0xbe0875b8	-0.13326156
49	0x3e0678e7	0.13132058
50	0xbe7dd788	-0.2478925
51	0xbdfe3f2e	-0.12414394
52	0x3c8436e7	0.01613946
53	0x3e2d18ca	0.16903988
54	0xbdcbf64b	-0.09959086
55	0x3d00ce6c	0.03144686
56	0xbd692f8f	-0.05693012
57	0x3e8deb7f	0.27718732
58	0xbdc762d0	-0.09735644
59	0x3da452f7	0.08023637
60	0xbccfc94d	-0.025364542
61	0x3d68c937	0.05683252
62	0x3e067976	0.13132271
63	0xbd43445a	-0.047672607
64	0xbe13f07f	-0.1444721
65	0x3c1ec116	0.00968959
66	0x3e0a811c	0.13525814
67	0xbd542722	-0.051795132
68	0x3d23c1ce	0.03997975
69	0xbd1784f6	-0.036992036
70	0x3e639ca7	0.22227727
71	0xbdeabfe7	-0.11462384
72	0x3df56b6e	0.11983381
73	0x3d09264f	0.0334838
74	0xbe31e3a6	-0.17371997
75	0xbcc06c6f	-0.023489205
76	0x3d19c749	0.03754357
77	0x3da254fa	0.07926364
78	0xbd7ee012	-0.06222541
79	0x3d69ef4d	0.05711298
80	0xbd0105a5	-0.031499524
81	0xbb66e1b5	-0.0035229747
82	0xbe0b9935	-0.13632663
83	0x3e2baa3b	0.16764157
84	0xbd6209d6	-0.05518516
85	0xbc00cbc4	-0.0078610815
86	0xbc546c4c	-0.012965273
87	0x3e3a56e2	0.18197206
88	0xbcda2688	-0.026629701
89	0x3d94587d	0.0724344
90	0x3b091e24	0.0020922506
91	0xbdbec755	-0.09315363
92	0x3c924722	0.017856184
93	0xbe3f3959	-0.1867422
94	0xbdf398a6	-0.1189435
95	0x3e04a295	0.12952645
96	0xbd235928	-0.039879948
97	0x3d7d0341	0.06177068
98	0xbe5a08df	-0.21292447
99	0x3dd0415a	0.10168715
100	0x3dc0589f	0.09391903
101	0x3de11bf1	0.109916575
102	0xbcc8baaf	-0.02450308
103	0x3e5a711a	0.21332207
104	0xbe19e71a	-0.15029564
105	0x3d823842	0.063583866
106	0xbdb9d526	-0.09073858
107	0x3ce82cb0	0.028341621
108	0x3db9c1a8	0.0907014
109	0xbd4acdd3	-0.049512696
110	0xbe00c1aa	-0.12573877
111	0xbdd9137d	-0.1059942
112	0x3d98c423	0.07459285
113	0x3e9690f0	0.29407454
114	0x3e24b68b	0.1608526
115	0xbd89049b	-0.066903315
116	0x3e3212d1	0.1738999
117	0x3eb86269	0.3601258
118	0x3c89f1f3	0.016839003
119	0xbe55010b	-0.20801179
120	0x3cccb765	0.024989793
121	0x3e2f132d	0.17097159
122	0xbd846098	-0.06463736
123	0xbd13c908	-0.03608039
124	0xbd7012aa	-0.05861155
125	0xbd9b4a7d	-0.07582567
126	0x3e430993	0.19046621
127	0x3b106ebe	0.0022038664

fc.weight f4 [256, 512]
0	0xbd19da4c	-0.0375617
1	0xbd8696b8	-0.06571716
2	0xbc9bbd4b	-0.01901116
3	0x3c44c8e5	0.012010788
4	0x3dd24367	0.10266762
5	0xbda7cceb	-0.08193382
6	0x3dabb0a1	0.08383299
7	0xbc3dcaf7	-0.011584035
8	0x3c18cccb	0.00932617
9	0x3d28eab7	0.041239467
10	0xbd9ede55	-0.0775725
11	0xbbe40f1a	-0.006959808
12	0xbcb71f9a	-0.022353936
13	0xbd5a9453	-0.05336411
14	0x3d38ac1f	0.045086022
15	0xbc394248	-0.011307307
16	0xbe05592f	-0.13022302
17	0xbc773d37	-0.015090278
18	0x3d2dd889	0.042442832
19	0x3e1e512a	0.15460649
20	0xbdc02cbd	-0.09383533
21	0xbd8793ef	-0.06620013
22	0xbbedf9ff	-0.007262468
23	0xbd2cc853	-0.04218323
24	0xbc3db9fc	-0.011579987
25	0x3c84e504	0.016222484
26	0xbd8424e1	-0.064523466
27	0x3c229f57	0.009925685
28	0x3d5c5f00	0.053801537
29	0x3da5ba3c	0.08092162
30	0xbd743aa3	-0.059626233
31	0xbe44fbcb	-0.19236676
32	0xbd7a1367	-0.06105366
33	0x3d228d8b	0.039685767
34	0xbd054bd2	-0.03254301
35	0x3dcfd9a7	0.10148936
36	0x3d76cfa0	0.0602566
37	0xbcf4231b	-0.029801896
38	0x3dbabd26	0.091181085
39	0x3d904619	0.0704462
40	0xbdd4ed92	-0.103968754
41	0x3c47ae8c	0.012187611
42	0x3e19e414	0.15028411
43	0xbda599f3	-0.08086004
44	0x3dd9bee9	0.10632116
45	0x3bcbe302	0.00622213
46	0x3ce9cdf2	0.028540585
47	0xbc5f1801	-0.013616563
48	0xbcb2f4f7	-0.021845324
49	0x3dab0938	0.08351368
50	0x3d15a225	0.036531586
51	0x3e19bbf9	0.15013112
52	0xbc161939	-0.009161287
53	0xbd2ae628	-0.0417234
54	0xbe1e4f6c	-0.15459985
55	0xbd81aa9b	-0.063313685
56	0xbdd0ffda	-0.1020505
57	0x3cef5a1d	0.029217774
58	0x3c5f8926	0.013643539
59	0x3d66b8ff	0.05632877
60	0x3dc6939b	0.09696122
61	0x3dcc808e	0.09985457
62	0xbd82f3f0	-0.06394184
63	0x3d0a4e24	0.033765927
64	0x3d31e18d	0.043427993
65	0xbdb08191	-0.08618463
66	0xbbbe41b3	-0.005806172
67	0xbe24da8e	-0.16098997
68	0x3c037936	0.008024504
69	0x3c7c1031	0.01538472
70	0x3d8c811f	0.068605654
71	0x3d71dd56	0.059048973
72	0x3cc9368e	0.024562147
73	0xbd2d941e	-0.042377584
74	0xbd30c96e	-0.04316085
75	0xbe0e0b80	-0.13871574
76	0x3cbf3d90	0.023344785
77	0x3c213c0b	0.0098409755
78	0xbd9c11b7	-0.07620566
79	0xbcf4e48e	-0.02989414
80	0x3d3fda59	0.046839092
81	0xbcc50e12	-0.02405456
82	0xbd0ea432	-0.034824558
83	0x3c245a18	0.010031246
84	0x3d60d49f	0.05489027
85	0x3c99c363	0.018769925
86	0xba9b794e	-0.0011861713
87	0x3da21f1c	0.0791609
88	0xbc1e153a	-0.0096486155
89	0xbdaede31	-0.085384734
90	0x3d723176	0.0591292
91	0x3daf6853	0.0856482
92	0x3d02d269	0.031938944
93	0x3dd16146	0.102236316
94	0xbb55664e	-0.00325622
95	0xbda6758b	-0.08127888
96	0xbd443c50	-0.04790908
97	0x3cbc7184	0.023003347
98	0x3d777506	0.060414337
99	0x3bfba456	0.0076795025
100	0xbd28a57e	-0.04117345
101	0xbbee5704	-0.0072735567
102	0xbc4ba571	-0.012429581
103	0xbcc000e9	-0.023437934
104	0x3d93018a	0.07178028
105	0xbd5a3eb3	-0.05328245
106	0x3d81c5b3	0.06336536
107	0xbd6959fe	-0.05697059
108	0x3da05422	0.07828547
109	0x3cfbd9c6	0.03074349
110	0xbd93158d	-0.07181845
111	0xbe29033f	-0.16505145
112	0x3c9d7697	0.019221587
113	0x3e070fc6	0.13189611
114	0x3e389493	0.18025427
115	0x3dc55c48	0.09636742
116	0xbdf2abec	-0.11849198
117	0xbda01887	-0.07817178
118	0x3d9ef266	0.077610776
119	0x3c709452	0.0146838
120	0x3d964744	0.073378116
121	0xbd0360d2	-0.032074757
122	0x3d1cbeb0	0.03826779
123	0x3d977a6c	0.07396397
124	0xbd3285b1	-0.04358453
125	0xbdb926a4	-0.09040573
126	0xbb5cfbfe	-0.0033719535
127	0x3da40d59	0.08010358
128	0x3d784ecd	0.060622025
129	0x3b8a4e48	0.0042207576
130	0x3d3452a1	0.044024114
131	0xbd2bb09b	-0.04191647
132	0xbb3fd653	-0.0029272034
133	0xbd6348a4	-0.055489197
134	0xbc7d4c1c	-0.01546004
135	0xbdf15e9c	-0.117856234
136	0xbd347cd1	-0.044064347
137	0xbc86ebdf	-0.016469894
138	0xbd8086ea	-0.06275733
139	0x3d63a388	0.055575877
140	0xbbaffd3b	-0.0053707636
141	0x3c7b30ef	0.015331491
142	0xbc39a868	-0.011331655
143	0xbdeb305b	-0.114838324
144	0xbd02d52e	-0.031941585
145	0xbd40d920	-0.047082067
146	0x3d35310a	0.04423622
147	0x3c9e8d34	0.01935444
148	0x3d05a173	0.032624673
149	0x3cc5aa3b	0.024129024
150	0x3d830181	0.06396771
151	0xbe010bb1	-0.12602116
152	0x3ce16c5c	0.02751749
153	0xbd968a62	-0.07350613
154	0x3ca773f9	0.020441042
155	0xbe215153	-0.15753679
156	0x3d380fa6	0.0449368
157	0x3dca0357	0.09863918
158	0x3da8250b	0.082101904
159	0x3d88eb15	0.06685463
160	0x3d5367b5	0.051612575
161	0xbc36f95d	-0.011167851
162	0x3d99a038	0.075012624
163	0xbe0e837d	-0.13917346
164	0xbdb568ab	-0.088578545
165	0xbe02e961	-0.1278434
166	0xbd8fcc23	-0.07021358
167	0x3d0e0205	0.034669895
168	0xbcd0a579	-0.025469529
169	0x3d00e7e1	0.031471137
170	0xbe0d1e4a	-0.13781086
171	0xbe8291f7	-0.25501987
172	0xbc836b0b	-0.016042253
173	0xbb9e9b02	-0.0048402557
174	0xbcd1d137	-0.025612457
175	0xbdd167fb	-0.10224911
176	0xbd076544	-0.03305556
177	0x3d2dfdb7	0.04247829
178	0x3c90e4dc	0.017687254
179	0xbe2dd0a2	-0.16974118
180	0xbd995353	-0.07486596
181	0xbd38c9cf	-0.045114335
182	0xbd6885c1	-0.056768183
183	0xbdfc8dc4	-0.12331727
184	0x3b965702	0.004588009
185	0x3a71a7f1	0.00092184456
186	0xbe3cb087	-0.18426715
187	0x3c600179	0.013672226
188	0x3b2b407c	0.0026130965
189	0xbcb11820	-0.021617949
190	0xbd8d8079	-0.0690927
191	0xbe2103c2	-0.1572409
192	0xbd577255	-0.05259927
193	0xbdbee4d5	-0.0932099
194	0x3d881349	0.06644303
195	0x3d8613c6	0.0654674
196	0xbd25d3ca	-0.04048518
197	0xbcb7e6e5	-0.022448966
198	0x3dfa3f37	0.122190885
199	0x3d0dabe9	0.034587774
200	0xbcb866da	-0.022509981
201	0x3d9af78d	0.07566748
202	0xbd33deec	-0.043913767
203	0x3c0c1294	0.008549351
204	0xbcfbd7fa	-0.030742634
205	0x3c481d35	0.012213995
206	0xbe108532	-0.1411331
207	0x3d9fe069	0.07806475
208	0x3dc8639d	0.09784625
209	0x3cae8b2d	0.021306599
210	0xbd5dfd15	-0.054196436
211	0x3ac08463	0.0014687892
212	0x3dd2991a	0.10283108
213	0x3dc1b6bb	0.09458681
214	0xbd36f5b4	-0.044667915
215	0xbde903d8	-0.11377686
216	0xbc036b3b	-0.008021171
217	0xbd0596a8	-0.03261438
218	0x3d41536a	0.04719869
219	0x3dc15e8d	0.09441862
220	0xbdabbb29	-0.08385307
221	0x3c2a6c60	0.010401815
222	0x3d654be8	0.055980593
223	0xbb36fbd5	-0.00279211
224	0xbc81a2d4	-0.015824713
225	0x3d7e6e4d	0.06211691
226	0x3ad309fe	0.0016101
227	0xbe03e2c5	-0.12879474
228	0xbd8bb937	-0.06822436
229	0xbcb9d838	-0.022686109
230	0x3dead99d	0.11467288
231	0x3d7565e2	0.059911616
232	0x3d8a7e50	0.067623734
233	0x3bdadd65	0.0066792243
234	0xbd88194c	-0.0664545
235	0x3b7247a4	0.003696897
236	0xbc0e183d	-0.008672771
237	0xba7f8132	-0.00097467296
238	0xbcd6b4a5	-0.026209185
239	0xbdaa89d0	-0.08327067
240	0xbc15a967	-0.009134627
241	0xbd516706	-0.05112364
242	0x3d3af844	0.04564692
243	0x3d1c110a	0.038102187
244	0x3dc19a3b	0.09453245
245	0x3d92034c	0.07129535
246	0xbd6f9561	-0.05849207
247	0xbcdbb6e4	-0.026820607
248	0x3be16341	0.006878287
249	0xbd9ef1bc	-0.07760951
250	0x3d543633	0.0518095
251	0xbde00256	-0.109379455
252	0xbe0f01d1	-0.13965537
253	0x3d885e86	0.06658654
254	0x3d1fba99	0.038996313
255	0xbc684643	-0.014176908

fc.bias f4 [256]
0	0x3b1d8da5	0.0024040726
1	0xbd8dd12e	-0.069246635
2	0x3e302f6f	0.17205594
3	0xbd79d557	-0.060994472
4	0xbdaaee00	-0.08346176
5	0x3dd632a4	0.10458878
6	0x3d000bc4	0.03126122
7	0x3f0dcc0e	0.5538949
8	0x3eda83e0	0.42678738
9	0xbdd54c87	-0.10414987
10	0x3e227ac7	0.15867148
11	0x3ea525bc	0.32255352
12	0x3e1ac048	0.15112412
13	0x3c63a99a	0.013895417
14	0xbe0dc6c7	-0.13845359
15	0xbe062d9d	-0.13103338
16	0x3d06f769	0.032950792
17	0x3e3f284e	0.18667719
18	0xbd7443a3	-0.059634816
19	0x3d8c9769	0.06864817
20	0x3e0e1dab	0.13878505
21	0x3dc23a39	0.09483761
22	0x3ecc70b2	0.3992973
23	0xbd4d4ea5	-0.05012383
24	0x3dccea5d	0.10005639
25	0x3e8c3be2	0.27389437
26	0xbb2334df	-0.002490334
27	0xbda26545	-0.07929472
28	0xbe1438e1	-0.14474823
29	0x3d1b6ac9	0.037943635
30	0x3d6fd866	0.058555983
31	0xbd550d76	-0.05201479
32	0x3e0f71fe	0.14008328
33	0x3e34d708	0.17660153
34	0x3ef619a3	0.48066434
35	0x3e25b370	0.16181731
36	0xbef88de6	-0.4854576
37	0xbd29bf47	-0.041442182
38	0xbc356e3b	-0.011073644
39	0x3dfe907a	0.124299005
40	0x3eeb842c	0.45999277
41	0x3e36f769	0.17867817
42	0x3d9214ed	0.071328975
43	0xbd5d3201	-0.054002766
44	0xbd94b788	-0.07261568
45	0xbd21be15	-0.039487917
46	0x3e4cdf78	0.20007122
47	0x3d1ab9fc	0.037775025
48	0xbd9fc75c	-0.07801697
49	0x3eadaef4	0.3392254
50	0xbdd6e32c	-0.10492548
51	0x3e8be2b9	0.27321413
52	0x3e16f42d	0.14741583
53	0xbcc138b1	-0.023586603
54	0x3e2a01aa	0.16602197
55	0xbc22668f	-0.009912147
56	0x3e13836c	0.14405602
57	0x3d738c93	0.059460234
58	0xbdb4d156	-0.0882899
59	0x3cc3c45a	0.023897339
60	0x3e0342dd	0.12818475
61	0xbdbec44a	-0.09314783
62	0xbd4bb704	-0.049735084
63	0xbc945e9b	-0.018111518
64	0x3e2caaa0	0.16861963
65	0xbd937306	-0.07199673
66	0x3e659a64	0.22422177
67	0x3b8f393a	0.0043708356
68	0xbd690b82	-0.05689574
69	0x3c5ab15f	0.013347953
70	0x3d8b7d66	0.06811027
71	0xba9a269d	-0.0011760775
72	0x3d74df97	0.059783544
73	0x3e2bb64b	0.16768758
74	0x3ef013f4	0.46890223
75	0xbe4073a2	-0.1879411
76	0x3e02268c	0.12710017
77	0x3e0b6dea	0.13616148
78	0x3d839128	0.06424171
79	0xbd994c56	-0.07485263
80	0x3ea238ff	0.3168411
81	0x3e0a5fc2	0.13513091
82	0xbdf752e1	-0.12076355
83	0x3e6f265c	0.23354477
84	0x3e21d432	0.15803602
85	0x3f0062fe	0.5015105
86	0xbf09aff6	-0.5378412
87	0x3a8e6679	0.001086428
88	0x3d2a266d	0.041540552
89	0x3deaa439	0.11457104
90	0x3e096abc	0.13419622
91	0x3eee6d48	0.4656775
92	0xbd734ed0	-0.059401333
93	0xbd2f60bc	-0.042816862
94	0xbd699065	-0.05702247
95	0xbc235777	-0.009969584
96	0xbdb4044c	-0.08789882
97	0x3e0ff043	0.14056496
98	0x3dbdd51d	0.09269164
99	0x3dfb5f44	0.1227403
100	0xbd68c36d	-0.056826998
101	0x3e87129a	0.2638138
102	0xbdcd4425	-0.10022763
103	0x3e49d412	0.19709805
104	0xbc25caed	-0.010119182
105	0xbd1907a3	-0.0373608
106	0xbca1c9f9	-0.019749628
107	0x3e865ac8	0.26241136
108	0x3db76b4f	0.08956014
109	0x3dbba3c0	0.09162092
110	0xbd86f48c	-0.06589612
111	0x3ecf2a8c	0.40462148
112	0x3e098c9d	0.13432546
113	0x3e29529a	0.16535416
114	0x3e6155eb	0.22005431
115	0x3e2356fb	0.15951149
116	0xbf05ab4c	-0.52214503
117	0x3e887672	0.26652867
118	0x3f010f53	0.5041401
119	0x3e1a9e1f	0.15099381
120	0x3e3fb88b	0.18722741
121	0x3e02a02e	0.12756416
122	0x3e062951	0.13101698
123	0x3e364f43	0.17803673
124	0x3d2c6c2f	0.04209536
125	0xbd1178f8	-0.035515755
126	0xbb87c4ad	-0.0041433186
127	0x3efad42a	0.48989993
128	0xbe3184af	-0.17335771
129	0xbdcdab45	-0.10042433
130	0xbba52c8d	-0.0050407113
131	0xbd0a0de9	-0.033704672
132	0x3e8dce3c	0.27696407
133	0x3cd2f9ec	0.025753938
134	0x3d480e4a	0.048841752
135	0x3a9e6f28	0.001208757
136	0xbdd30b12	-0.10304846
137	0xbd52b0ff	-0.051438328
138	0x3dbdb537	0.092630796
139	0x3e6d84d2	0.23195198
140	0x3f0ef86d	0.5584782
141	0x3d8f4727	0.06995993
142	0x3de1c2fb	0.11023518
143	0xbe290ca9	-0.16508736
144	0xbc3528f8	-0.011057131
145	0x3dd6d0aa	0.10489018
146	0xbd1141de	-0.035463206
147	0xbd984f34	-0.07436982
148	0x3e42990c	0.19003695
149	0xbec7587d	-0.389347
150	0x3df8e835	0.12153665
151	0x3e0cfff9	0.13769521
152	0x3e054f6e	0.13018581
153	0x3d8a2b1e	0.06746505
154	0x3e36f047	0.17865096
155	0x3e23b353	0.15986376
156	0xbdd705a9	-0.104991265
157	0x3f1e2867	0.617804
158	0x3e0613b2	0.1309345
159	0x3e3bd508	0.18342984
160	0x3e0df16a	0.13861623
161	0x3d8fadbd	0.0701556
162	0x3e252301	0.16126634
163	0x3e1e418c	0.15454692
164	0x398a16bd	0.00026338352
165	0x3e2ab2eb	0.16669814
166	0x3d1442c9	0.036196504
167	0x3c1d31dd	0.009594408
168	0xbd986d03	-0.07442667
169	0x3d20fba1	0.039302472
170	0x3e27cdbe	0.16387078
171	0xbbcf2310	-0.0063213184
172	0x3e449b87	0.19199954
173	0x3e1d2601	0.15346529
174	0x3d466065	0.048431773
175	0x3e24e280	0.16102028
176	0x3da2f7de	0.07957433
177	0x3d0824c1	0.033238176
178	0xbdee73ec	-0.11643204
179	0x3df070b9	0.1174025
180	0x3e92c3ea	0.28665096
181	0x3e2fdbd2	0.17173699
182	0x3dc3725a	0.09543295
183	0x3e0381ea	0.12842527
184	0x3de43e9b	0.111447535
185	0x3e1d9e7e	0.15392491
186	0x3dc3f03c	0.095673054
187	0x3efcfe32	0.49412686
188	0x3a0d98e6	0.0005401507
189	0xbd2f8395	-0.042850096
190	0x3d819131	0.06326521
191	0xbc39eb2b	-0.011347572
192	0x3ec46ac2	0.383627
193	0x3deaebe4	0.11470774
194	0x3dc55240	0.096348286
195	0x3cb1b747	0.021693839
196	0x3df7eef8	0.121061265
197	0x3e5030ac	0.20331067
198	0x3e44a9a1	0.19205333
199	0xbd1d85c7	-0.03845766
200	0xbca7b4d9	-0.020471977
201	0xbcab08f5	-0.020878294
202	0x3c120c1c	0.00891402
203	0x3e290a4a	0.16507831
204	0x3dde2397	0.10846632
205	0xbd631d70	-0.055447996
206	0x3f175ef6	0.59129274
207	0x3e829b07	0.255089
208	0x3e2b211e	0.16711852
209	0x3e223e7c	0.15844148
210	0x3ee33a4f	0.44380423
211	0x3e028e54	0.12749606
212	0x3e11cb68	0.1423775
213	0x3c87b742	0.016566876
214	0x3dc4e309	0.09613616
215	0x3e1c6c04	0.1527558
216	0x3d83c21b	0.06433507
217	0xbd56000a	-0.05224613
218	0x3e5b7a19	0.21433295
219	0x3dd48bf6	0.10378258
220	0xbc038fcb	-0.008029888
221	0xbd63a729	-0.05557934
222	0x3e17e023	0.14831595
223	0x3e5521f2	0.2081373
224	0xbdd6e3b5	-0.104926504
225	0xbdfc52b8	-0.12320465
226	0xbebb4b33	-0.3658081
227	0x3ce058fc	0.027386181
228	0x3e0c9258	0.137277
229	0x3ed6931c	0.4190911
230	0x3c3c9915	0.011511107
231	0x3da21aec	0.07915291
232	0xbe273c18	-0.16331518
233	0x3e306374	0.17225438
234	0xbdd6a467	-0.10480576
235	0x3bf9d656	0.007624428
236	0x3e44f880	0.1923542
237	0x3dc33eb0	0.09533441
238	0x3d9c3004	0.07626346
239	0x3e6744e3	0.22584872
240	0x3b6f47fd	0.0036511414
241	0x3e469f8f	0.19396804
242	0x3da0aa62	0.07844998
243	0x3dd3bed6	0.103391334
244	0xbdaeba2d	-0.08531604
245	0x3e306e2e	0.1722953
246	0xbcb06473	-0.021532273
247	0xbd2f4471	-0.04278988
248	0x3ca423c5	0.020036587
249	0xbca34ade	-0.01993316
250	0x3d84d5b9	0.06486077
251	0x3e007543	0.12544732
252	0x3e79cbef	0.243942
253	0x3ccf292d	0.025288189
254	0x3d6fcee8	0.05854693
255	0x3dbb96b4	0.09159604
