model_store/pnet-3da9e965.pt (torch_old, 28213 bytes, 9 tensors)

pre_layer.0.weight f4 [10, 3, 3, 3]
0.6501458 0.9408277 1.3774202 -0.27866727 -1.3077627 -1.2002074 0.090308934 0.031837046
0.040875494 0.13961574 0.77181906 0.631808 -0.53605175 -1.680774 -0.8275965 0.35073325
0.035157476 0.14330044 0.057003245 0.9788738 0.089487836 0.13849878 -0.66402125 -0.9571113
-0.30944684 0.69218594 0.5000518 -2.2552586 -0.7675709 0.4472327 -2.2342584 -0.70750487
1.3405437 -1.7166322 -0.5117315 0.54969686 1.8066069 0.7938266 -0.07148212 1.3864442
0.5931026 -0.100495204 1.025712 0.7209875 0.16479617 0.6367614 0.21673031 -0.3087485
1.1575265 0.050444048 -1.2186761 0.71325505 -0.14913613 -0.70556885 0.26835647 0.5159085
-0.5484358 0.49987474 0.4802239 -1.1656938 0.6567111 -1.5261374 -0.95141333 -0.32549244
0.44664207 0.157781 0.1526891 1.7513894 0.40784875 1.1655581 0.99128145 2.1860578
-0.7755183 -0.41610014 0.12302373 -1.4787598 -1.2628671 -0.10069634 -0.8975177 -0.89027673
0.62494737 -2.512891 -1.9407728 -1.1153867 1.2312953 0.28252578 -0.32598126 2.4302423
1.3680726 0.14679328 -0.22036749 0.5243153 0.45799637 1.1070638 0.23154546 0.20848744
-1.5622548 -0.7236757 0.32870612 0.6841084 0.99546933 0.346353 0.6240278 0.3980064
0.30907115 -1.6595367 -0.8965388 -0.11986447 0.4743196 -2.056799 0.9037106 0.45306528
-1.3323903 0.7146636 0.9664872 -0.43613982 0.6244152 1.0776416 -1.4740219 0.9504198
0.79161215 -1.0986123 0.57282543 -0.2244898 -0.789259 -0.43219918 0.21245414 -0.87658423
0.51165056 0.5267577 -1.0360672 0.46426755 0.41485095 -0.50221634 0.29033083 -0.97075355
1.9929249 1.6484029 -0.14848347 0.77960676 1.4520835 -0.8279662 -0.21751909 -0.58959174
-0.52862215 -1.0068235 -1.2255781 -0.61032695 -2.1766264 -1.7459837 -0.023510778 -0.63450253
-0.8502747 0.18257321 -0.17222896 -0.6628356 1.3387536 0.545121 0.24738112 0.9274313
1.3035349 0.769395 -1.330503 -0.11356125 1.0406893 -0.88094133 0.39509708 1.1177299
-0.38965887 0.34769583 -0.09722121 -0.75260985 -0.18366475 0.70727557 -1.1897241 -0.17374948
0.9542707 -0.75619 0.05228491 0.6864255 -0.6017894 -0.14974906 0.5291716 -0.4741069
-0.21172103 0.6616657 0.035384484 0.044198733 0.603168 1.5310615 -0.41462716 -2.5025973
1.9101039 0.560701 -1.8094796 0.97475326 0.7032146 -0.88596547 0.40270114 -0.072163716
0.14387447 0.35822618 -0.275704 -0.3125373 -0.2274683 -0.1549695 -0.33474502 -0.2115584
-0.34598437 0.2705511 0.40487733 -0.3814353 -0.51133496 0.422689 0.28892007 0.26192838
1.5484136 -0.18377887 0.080857106 0.839548 -1.4532994 0.027698198 -1.0050584 -0.9068864
0.04290652 0.59749377 -0.7162551 -0.6480294 -0.03203505 -1.5660568 0.16642256 -0.26250994
-0.14018372 0.7416164 0.547386 -0.4967598 -0.6644826 0.17787856 -0.82990336 0.24106999
-0.2498293 0.045963172 0.9092962 -2.3994622 -1.4048436 -1.499661 -0.09581731 -0.010153002
0.07377673 1.4657873 1.8471835 2.0312822 -0.14354867 -0.0968651 0.2987215 -0.06317606
00000000: f56f 263f 16da 703f 4e4f b03f 7aad 8ebe
00000010: c564 a7bf 65a0 99bf e4f3 b83d 9067 023d
00000020: 106d 273d 6ef7 0e3e ef95 453f 2bbe 213f
00000030: b03a 09bf 9a23 d7bf 5ddd 53bf 4f93 b33e
00000040: 4901 103d 5abd 123e 3c7c 693d 7997 7a3f
00000050: 6645 b73d a0d2 0d3e 4cfd 29bf 3f05 75bf
00000060: d16f 9ebe 1933 313f 6503 003f 2856 10c0
00000070: 877f 44bf affb e43e 17fe 0ec0 0a1f 35bf
00000080: f096 ab3f 9bba dbbf d600 03bf efb8 0c3f
00000090: e53e e73f 3838 4b3f 3865 92bd 0177 b13f
000000a0: 92d5 173f 6ed0 cdbd 884a 833f a392 383f
000000b0: 54c0 283e cc02 233f 8dee 5d3e 4914 9ebe
000000c0: d429 943f 6b9e 4e3d 94fd 9bbf e297 363f
000000d0: 24b7 18be 29a0 34bf 0566 893e 9412 043f
000000e0: 4a66 0cbf 95ef ff3e e8df f53e 7435 95bf
000000f0: 381e 283f 7858 c3bf d38f 73bf f2a6 a6be
00000100: 45ae e43e 5891 213e 885a 1c3e 872d e03f
00000110: 8dd1 d03e 0231 953f 9fc4 7d3f 5fe8 0b40
00000120: 5e88 46bf 140b d5be def3 fb3d 0048 bdbf
00000130: a1a5 a1bf e239 cebd b8c3 65bf 2de9 63bf
00000140: 8dfc 1f3f 35d3 20c0 3e6b f8bf fec4 8ebf
00000150: 169b 9d3f 38a7 903e 04e7 a6be 1789 1b40
00000160: 011d af3f fa50 163e 04a8 61be 8739 063f
00000170: 807e ea3e 44b4 8d3f 411a 6d3e bb7d 553e
00000180: f7f7 c7bf d042 39bf 2b4c a83e ba21 2f3f
00000190: 14d7 7e3f 2e55 b13e 49c0 1f3f 7fc7 cb3e
000001a0: 933e 9e3e b36b d4bf 9183 65bf 817b f5bd
000001b0: 05da f23e 98a2 03c0 9459 673f 2cf8 e73e
000001c0: c48b aabf 32f4 363f b56b 773f b84d dfbe
000001d0: add9 1f3f 29f0 893f c0ac bcbf b64e 733f
000001e0: 18a7 4a3f 549f 8cbf b0a4 123f a7e0 65be
000001f0: e10c 4abf 3649 ddbe 948d 593e d367 60bf
00000200: 88fb 023f 98d9 063f da9d 84bf 7ab4 ed3e
00000210: 5867 d43e 4091 00bf 3ea6 943e 4e83 78bf
00000220: 2a18 ff3f defe d23f 0d0c 18be 4f94 473f
00000230: dfdd b93f 98f5 53bf 53bd 5ebe 7cef 16bf
00000240: c853 07bf 98df 80bf bedf 9cbf 633e 1cbf
00000250: d94d 0bc0 657c dfbf ad99 c0bc c26e 22bf
00000260: 9aab 59bf 79f4 3a3e ca5c 30be 98af 29bf
00000270: 475c ab3f 0d8d 0b3f 7a51 7d3e 236c 6d3f
00000280: 3bda a63f 12f7 443f ec4d aabf cd92 e8bd
00000290: 4f35 853f 5f85 61bf 2a4a ca3e c611 8f3f
000002a0: 5e81 c7be 3005 b23e ea1b c7bd 0aab 40bf
000002b0: 9d12 3cbe 0310 353f e148 98bf 62eb 31be
000002c0: 164b 743f ab95 41bf b428 563d 95b9 2f3f
000002d0: df0e 1abf d157 19be ca77 073f 24be f2be
000002e0: 66cd 58be ec62 293f 52ef 103d bb09 353d
000002f0: 3869 1a3f d3f9 c33f 034a d4be 8e2a 20c0
00000300: 497e f43f 1a8a 0f3f 079d e7bf 6e89 793f
00000310: df05 343f a2ce 62bf d82e ce3e 92ca 93bd
00000320: d453 133e 6c69 b73e 1329 8dbe e404 a0be
00000330: 73ed 68be 53b0 1ebe b363 abbe c4a2 58be
00000340: dd24 b1be ac85 8a3e 154c cf3e 7d4b c3be
00000350: d9e6 02bf b16a d83e 55ed 933e 7a1b 863e
00000360: 6b32 c63f 8730 3cbe 6998 a53d 9eec 563f
00000370: b705 babf 55e7 e23c c1a5 80bf b529 68bf
00000380: bfbe 2f3d 5af5 183f 7f5c 37bf 41e5 25bf
00000390: 2f37 03bd 8d74 c8bf ad6a 2a3e b467 86be
000003a0: 528c 0fbe 93da 3d3f 7d21 0c3f 4d57 febe
000003b0: 881b 2abf cc25 363e 8c74 54bf 0ddb 763e
000003c0: 41d3 7fbe e143 3c3d a3c7 683f ca90 19c0
000003d0: ead1 b3bf e4f4 bfbf de3b c4bd c758 26bc
000003e0: 4118 973d eb9e bb3f 8270 ec3f 8700 0240
000003f0: 6cfe 12be 3661 c6bd 06f2 983e 7362 81bd

pre_layer.0.bias f4 [10]
-0.25712475 1.5708046 -0.040210124 -1.0679586 -0.48107886 -1.5164609 -0.121019125 -0.31949413
-2.592048 0.14509468
00000000: dba5 83be 2010 c93f 5fb3 24bd deb2 88bf
00000010: f84f f6be 641b c2bf e0d8 f7bd bc94 a3be
00000020: 1de4 25c0 b393 143e

pre_layer.3.weight f4 [16, 10, 3, 3]
-1.6251074 -0.33891788 0.94865984 -0.604524 -0.6678167 0.14393418 0.27238652 0.1190503
-0.060624164 -0.38936785 -0.5786745 1.4209783 0.87149274 -0.5633474 0.7586198 0.6302292
-1.1765618 0.05565658 -0.82174385 0.33360285 -0.36290792 -0.64554286 -0.5310657 -1.712336
0.61463326 1.9352784 0.36069196 0.11305312 -0.4137316 0.569555 -0.23178838 -1.864743
-0.37305254 0.87580246 -1.1424426 0.08920328 0.2758466 -0.101179145 -0.75904757 0.46642825
0.21607047 0.59096414 -0.17934366 -0.60488224 -0.11814622 0.4103991 -0.90395904 0.54162127
-0.05580906 -1.5869322 0.36272532 1.1529717 0.25609034 0.08840337 0.9772231 0.7849695
0.4823456 0.583207 -0.11750728 -0.13683698 0.58888274 -0.6749472 0.804323 -0.52249086
0.69270045 1.0650747 1.050189 0.083703324 0.20669287 -0.14105512 -0.05289309 -0.1684114
0.40940142 0.090045445 1.5438538 -0.6226813 0.26375985 0.20763896 -0.034401663 -1.2495319
-0.12805425 -2.241494 -1.5469021 -0.0023422535 -1.2737225 -2.5267048 0.20700064 -0.99405754
-0.18063289 -0.27801952 -0.6330199 0.1544445 -0.6343305 -0.6931771 0.024998719 -0.09520489
0.08541402 0.07379144 0.86500174 2.6441581 -0.10208376 -1.6481192 -0.6245506 -1.0080653
-0.98343116 -0.8194259 -0.21262124 -0.04832166 -0.088912494 0.195742 -1.2214926 0.32590204
0.33859706 -1.338592 -0.4334752 0.50286347 -1.006452 -0.97072476 -1.4776247 -0.5642117
-2.4610696 0.716196 -1.0396333 -0.8564341 0.018380098 0.4736236 -0.2970955 -2.4036434
-2.657228 0.083024666 -0.80724424 -1.71187 0.48329473 0.45940632 0.9851261 -3.2244802
-1.6922445 -0.31429163 0.41923174 -1.0770745 0.88602185 -1.8677723 1.5216999 -1.0655574
1.2312173 -0.3635814 -1.9839222 0.14701723 -1.085736 0.13870296 -0.3241285 0.98212177
0.38640434 0.21470177 0.6380241 0.37230116 -0.2253965 -0.023199515 -0.27971178 -0.33385444
0.9882054 -0.6660769 1.2887529 0.13991284 -2.2551432 -0.48133668 -0.45091033 0.92455775
-0.033203706 0.64696074 -0.4245819 0.36237928 1.1282018 1.5813892 -0.38901287 -0.3746303
-1.0504792 0.04235524 0.22653557 0.012690323 -0.37413558 0.23118912 0.9496491 0.3911992
0.56155527 1.0822868 -0.7942784 0.45633644 -0.34988356 -0.15576176 0.44632095 -0.42547998
0.1575892 0.06831729 -0.840177 -0.42093834 0.26268455 0.5729417 -0.12983578 0.00039455586
0.83108 -0.16417088 -1.3165072 -0.2730491 -0.2851582 1.5708658 -0.59876394 -0.46261436
-0.37191123 0.32150757 0.5239795 -0.22411071 0.3521607 -1.8225132 -0.39342493 -1.653414
0.3426614 0.5910609 0.7568679 0.17618805 0.98464185 -0.11542067 -0.35961092 -1.4487174
-3.1300304 0.15334597 0.12238914 -0.2048778 0.36613494 0.23773357 0.4725944 0.07733678
0.2521298 -1.2108219 0.2941998 -0.27489793 -0.85378456 0.017642459 -0.69159544 -1.4307477
-0.5982495 -0.68023247 -4.314171 0.49631834 0.16948031 -0.05475098 -0.053330254 -1.0926106
-0.59724885 -1.0702783 0.32715675 -6.3354826 -0.26008448 -0.39868042 0.51005775 0.109735735
00000000: 8503 d0bf a586 adbe 5fdb 723f 16c2 1abf
00000010: 09f6 2abf 7b63 133e 3f76 8b3e a5d0 f33d
00000020: 0b51 78bd 395b c7be 0324 14bf 9ee2 b53f
00000030: 261a 5f3f 8937 10bf e834 423f b356 213f
00000040: 9499 96bf 27f8 633d ce5d 52bf fecd aa3e
00000050: 11cf b9be 4c42 25bf ecf3 07bf d32d dbbf
00000060: 9b58 1d3f 34b7 f73f 9eac b83e 6588 e73d
00000070: a1d4 d3be 5bce 113f ef59 6dbe e6af eebf
00000080: be00 bfbe 9734 603f 8f3b 92bf 36b0 b63d
00000090: c43b 8d3e 0337 cfbd f150 42bf afcf ee3e
000000a0: 9441 5d3e 6d49 173f dda5 37be 90d9 1abf
000000b0: a5f6 f1bd d51f d23e dc69 67bf b1a7 0a3f
000000c0: 0a98 64bd 9820 cbbf 22b7 b93e 9494 933f
000000d0: 461e 833e d30c b53d 4b2b 7a3f c3f3 483f
000000e0: 01f6 f63e 0e4d 153f a8a7 f0bd fe1e 0cbe
000000f0: 05c1 163f 57c9 2cbf 1de8 4d3f f6c1 05bf
00000100: d154 313f 5e54 883f 986c 863f a66c ab3d
00000110: 4ca7 533e c170 10be 6da6 58bd 0a74 2cbe
00000120: 109d d13e bf69 b83d 009d c53f 0b68 1fbf
00000130: 880b 873e 4f9f 543e c2e8 0cbd a9f0 9fbf
00000140: a720 03be a374 0fc0 e300 c6bf 7e80 19bb
00000150: 5709 a3bf 88b5 21c0 faf7 533e 8e7a 7ebf
00000160: d4f7 38be 9358 8ebe 980d 22bf b326 1e3e
00000170: 7c63 22bf 0e74 31bf 1dca cc3c c8fa c2bd
00000180: 8ced ae3d f71f 973d c170 5d3f e339 2940
00000190: 4a11 d1bd 92f5 d2bf 8ce2 1fbf 4908 81bf
000001a0: 25c2 7bbf e5c5 51bf 62b9 59be efec 45bd
000001b0: c117 b6bd 9770 483e df59 9cbf a2dc a63e
000001c0: 985c ad3e fc56 abbf 76f0 ddbe a9bb 003f
000001d0: 6bd3 80bf 6b81 78bf ce22 bdbf 2e70 10bf
000001e0: 2a82 1dc0 9f58 373f b412 85bf 443f 5bbf
000001f0: dc91 963c cb7e f23e e71c 98be 4bd5 19c0
00000200: 0610 2ac0 d608 aa3d 8fa7 4ebf 8e1e dbbf
00000210: 6872 f73e 4e37 eb3e 3931 7c3f e25d 4ec0
00000220: 789b d8bf d5ea a0be 8ba5 d63e 94dd 89bf
00000230: 54d2 623f 2a13 efbf 10c7 c23f 2f64 88bf
00000240: 8798 9d3f 5727 babe 2af1 fdbf af8b 163e
00000250: 66f9 8abf 2608 0e3e 2cf4 a5be 556c 7b3f
00000260: cad6 c53e c8da 5b3e 8c55 233f 429e be3e
00000270: 57ce 66be e90c bebc 6236 8fbe f8ee aabe
00000280: 07fb 7c3f 0484 2abf dbf5 a43f 5045 0f3e
00000290: 4454 10c0 c371 f6be b8dd e6be d1af 6c3f
000002a0: 9c00 08bd 389f 253f cc62 d9be c789 b93e
000002b0: eb68 903f f66a ca3f b22c c7be 8bcf bfbe
000002c0: 1a76 86bf b07c 2d3d f1f8 673e 13eb 4f3c
000002d0: b38e bfbe d7bc 6c3e 341c 733f 434b c83e
000002e0: 16c2 0f3f 6088 8a3f d455 4bbf eea4 e93e
000002f0: f023 b3be 0380 1fbe 2e84 e43e 83d8 d9be
00000300: 105f 213e efe9 8b3d d715 57bf 3b85 d7be
00000310: 977e 863e 4fac 123f acf3 04be 64dc ce39
00000320: a9c1 543f 691c 28be 4f83 a8bf 17cd 8bbe
00000330: 4100 92be 2112 c93f 9848 19bf cadb ecbe
00000340: 266b bebe a49c a43e 8523 063f 477d 65be
00000350: 684e b43e 1d48 e9bf fe6e c9be 12a3 d3bf
00000360: 5171 af3e c44f 173f 18c2 413f a46a 343e
00000370: 7d11 7c3f ac61 ecbd ec1e b8be 926f b9bf
00000380: 6b52 48c0 ba06 1d3e 28a7 fa3d 7ccb 51be
00000390: 0a76 bb3e 6e70 733e e5f7 f13e bf62 9e3d
000003a0: 2817 813e 36fc 9abf 5ba1 963e 6cbf 8cbe
000003b0: a091 5abf eb86 903c 660c 31bf be22 b7bf
000003c0: e126 19bf b723 2ebf b00d 8ac0 701d fe3e
000003d0: 3f8c 2d3e 9042 60bd d370 5abd aada 8bbf
000003e0: 4de5 18bf e1fe 88bf 1781 a73e 46bc cac0
000003f0: cb29 85be d71f ccbe 2593 023f 21bd e03d

pre_layer.3.bias f4 [16]
1.2927254 -2.6043487 -1.1337117 -3.3237245 -0.76728666 2.88249 2.7207923 -0.6538229
1.338853 -0.68820214 -1.9289417 1.9424037 -2.9831786 -1.4961039 0.5718483 0.108517386
00000000: 0778 a53f a6ad 26c0 771d 91bf e7b7 54c0
00000010: e66c 44bf b77a 3840 7621 2e40 f060 27bf
00000020: 895f ab3f 042e 30bf 90e7 f6bf afa0 f83f
00000030: 66ec 3ec0 5580 bfbf a664 123f 5d3e de3d

pre_layer.5.weight f4 [32, 16, 3, 3]
-0.57542366 -0.12072483 0.08328022 -1.0607547 -1.1631593 -0.7154652 -0.7336029 -0.38811448
-0.21901332 0.3019143 -0.27949914 0.44410366 0.26495993 -0.17530255 0.38529664 0.08412193
-0.43736243 -0.25680336 -1.3138995 -0.83905655 -1.8217827 -1.3671714 -1.219336 -0.8768366
-1.1314107 -0.21671371 -0.7731864 2.6965256 1.89579 1.6674016 1.4696354 1.1078289
1.9096798 2.2518249 2.415178 3.1988273 -0.39207822 0.05491637 -0.4391771 -0.014176126
-0.112214975 -0.08070365 -0.25151944 -0.93284065 -0.22706254 0.098011315 -0.31530163 -2.5010753
0.25365394 -0.80902165 -0.6964096 -0.24885818 -0.8326669 -1.4053602 -0.4306043 -0.44676587
-0.30047384 -0.038719468 -0.14092828 -0.27754757 0.52156854 0.17873652 -0.41759956 0.050213292
0.4785206 0.5207295 -0.27567363 -0.3597239 0.11486595 -0.27509382 0.3543907 -0.80920583
0.3462169 0.18607253 -0.14387396 0.37203538 0.41002676 -0.18670958 -0.15332927 0.16424091
-0.0746192 -0.8793762 -0.7317205 0.5151172 -0.4861984 0.012181117 0.042959183 0.4677805
0.7793747 0.54061186 0.2489075 0.6040699 -0.931606 0.19236028 0.084799334 -0.03721592
-0.10337632 -0.41870677 0.026524233 -1.56881 -0.957743 -1.6103901 -0.62837416 -0.5782906
-0.51382196 -1.7184368 -0.7696114 -0.8254894 -0.94685405 -0.76252335 -0.21211454 -0.03279821
-0.14730531 -0.01789934 -0.46385637 -0.26057047 -0.1058175 -0.86901796 -0.74586976 -0.20030113
-0.6939419 -0.46741435 -0.094490476 -0.17165183 0.022638682 0.5075246 0.2746188 -0.41114748
-0.441338 -0.017632984 0.16243726 -0.30286363 0.064960964 0.020666849 0.23812525 0.016102012
-0.29407978 -0.25802848 -0.034119256 -0.2830298 0.07201333 -0.14671487 -0.4046588 0.10193897
0.92714953 0.16823173 -0.055048697 -1.4991432 0.2855036 0.49013063 0.7639734 -1.3552281
1.1668757 1.7000685 0.31418765 1.2466577 -1.5407273 -0.56714773 0.28726053 0.5902556
0.2534333 -0.37733194 -3.4063826 -0.6646129 2.2224543 -2.1198986 -0.13791198 1.4361085
-2.1921558 0.04577534 0.67845714 1.420187 4.507862 4.2457113 -0.17407438 3.0320687
2.235645 0.5895046 1.036614 -0.9157072 0.33270273 -0.18547328 0.3542146 -0.93300396
-1.9642438 -0.8512142 -0.3430218 -1.5061004 -0.7029568 1.3493291 0.3957211 0.34412426
-0.1454085 -1.4533782 -2.3356264 -0.35259676 0.37252077 -1.3479495 -0.3659023 1.4207035
2.648305 -2.2450438 -0.25780147 0.58955604 -1.937579 1.341208 -1.1105355 0.8499911
-0.93225574 1.1521987 0.50549716 1.1792365 0.8333865 0.010694098 0.0597686 -0.36612383
0.6531188 -0.44072342 -1.1325744 0.73675287 -0.14755711 0.0647718 0.7567645 0.7678183
-0.32170293 1.3489999 -0.9745836 2.0074642 -1.2129766 -0.22102375 1.1145272 -0.17101133
0.66309625 -0.698064 -0.04492085 0.12690291 0.35287523 0.45733634 0.5002554 -1.0582513
0.3493722 1.6722351 0.026712144 0.47166213 0.028852891 -0.6258361 0.8248843 -0.58585453
0.28618208 -0.96420634 0.10793538 0.48926592 -0.39822114 -0.41271666 0.014502203 0.07689759
00000000: f74e 13bf 943e f7bd d28e aa3d cfc6 87bf
00000010: 67e2 94bf ba28 37bf 66cd 3bbf f1b6 c6be
00000020: 0745 60be 8394 9a3e 831a 8fbe 8e61 e33e
00000030: d4a8 873e 8382 33be 9a45 c53e 1e48 ac3d
00000040: f8ed dfbe bb7b 83be dc2d a8bf 69cc 56bf
00000050: 2d30 e9bf 79ff aebf 3413 9cbf 5d78 60bf
00000060: 11d2 90bf 33ea 5dbe 8bef 45bf e093 2c40
00000070: 3fa9 f23f 6a6d d53f 031d bc3f 56cd 8d3f
00000080: 6370 f43f e61d 1040 4792 1a40 96b9 4c40
00000090: 7abe c8be fdef 603d d2db e0be fb42 68bc
000000a0: f7d0 e5bd f547 a5bd 28c7 80be a5ce 6ebf
000000b0: 1583 68be 28ba c83d 376f a1be 9e11 20c0
000000c0: eede 813e 0b1c 4fbf e647 32bf aed4 7ebe
000000d0: a829 55bf d8e2 b3bf 2b78 dcbe 7fbe e4be
000000e0: b5d7 99be 4e98 1ebd 814f 10be b71a 8ebe
000000f0: 8485 053f b506 373e 9ccf d5be 74ac 4d3d
00000100: a700 f53e 874e 053f 1825 8dbe bb2d b8be
00000110: d73e eb3d 19d9 8cbe b372 b53e 1d28 4fbf
00000120: 5743 b13e cc89 3e3e b253 13be 6c7b be3e
00000130: 07ef d13e cc30 3fbe 5902 1dbe c52e 283e
00000140: f3d1 98bd cc1e 61bf 0952 3bbf b9de 033f
00000150: ffee f8be 4f93 473c f8f5 2f3d ed80 ef3e
00000160: 1a85 473f 8a65 0a3f 9ce1 7e3e 53a4 1a3f
00000170: bb7d 6ebf 18fa 443e 46ab ad3d b86f 18bd
00000180: f7b6 d3bd bc60 d6be 5949 d93c c4ce c8bf
00000190: a52e 75bf 4321 cebf 21dd 20bf da0a 14bf
000001a0: d689 03bf bdf5 dbbf 4105 45bf 4653 53bf
000001b0: 0765 72bf bb34 43bf 8e34 59be 6a57 06bd
000001c0: 34d7 16be a3a1 92bc 957e edbe 7e69 85be
000001d0: d8b6 d8bd f677 5ebf 52f1 3ebf bd1b 4dbe
000001e0: 2da6 31bf ef50 efbe 3984 c1bd 7fc5 2fbe
000001f0: c274 b93c 22ed 013f d69a 8c3e ec81 d2be
00000200: 0ef7 e1be 0c73 90bc f455 263e f110 9bbe
00000210: 410a 853d 864d a93c 1bd7 733e 5ee8 833c
00000220: a091 96be 4f1c 84be a2c0 0bbd 48e9 90be
00000230: ba7b 933d 6c3c 16be 702f cfbe 61c5 d03d
00000240: ac59 6d3f f044 2c3e be7a 61bd ede3 bfbf
00000250: 872d 923e 67f2 fa3e c393 433f 1d78 adbf
00000260: 2f5c 953f d89b d93f 34dd a03e 7b92 9f3f
00000270: 8d36 c5bf 9830 11bf d013 933e fe1a 173f
00000280: 02c2 813e a731 c1be 2c02 5ac0 1224 2abf
00000290: b13c 0e40 6bac 07c0 cc38 0dbe 67d2 b73f
000002a0: 484c 0cc0 ec7e 3b3d 5eaf 2d3f b0c8 b53f
000002b0: 6840 9040 dedc 8740 8e40 32be 6a0d 4240
000002c0: cf14 0f40 c6e9 163f c4af 843f c96b 6abf
000002d0: 0358 aa3e b5ec 3dbe 9e5b b53e 59d9 6ebf
000002e0: 576c fbbf 2ce9 59bf 8ea0 afbe e6c7 c0bf
000002f0: faf4 33bf d1b6 ac3f f59b ca3e 0e31 b03e
00000300: f7e5 14be 4c08 babf e77a 15c0 9087 b4be
00000310: 0bbb be3e 9c89 acbf 8c57 bbbe 9dd9 b53f
00000320: d47d 2940 ccae 0fc0 8efe 83be 25ed 163f
00000330: 9702 f8bf b4ac ab3f 0726 8ebf 0499 593f
00000340: 50a8 6ebf 3f7b 933f 4368 013f 39f1 963f
00000350: d158 553f 4c36 2f3c ebcf 743d 9574 bbbe
00000360: cb32 273f 80a6 e1be 33f8 90bf d69b 3c3f
00000370: 3619 17be 14a7 843d 51bb 413f bd8f 443f
00000380: 3fb6 a4be 07ac ac3f 507e 79bf 4b7a 0040
00000390: d142 9bbf 0d54 62be d4a8 8e3f 981d 2fbe
000003a0: adc0 293f 53b4 32bf edfe 37bd d6f2 013e
000003b0: 10ac b43e fd27 ea3e bd10 003f c774 87bf
000003c0: eae0 b23e cd0b d63f 6dd3 da3c b37d f13e
000003d0: e65c ec3c cb36 20bf 9e2b 533f 90fa 15bf
000003e0: 7586 923e 3ad6 76bf 390d dd3d 1081 fa3e
000003f0: a4e3 cbbe 994f d3be a69a 6d3c 7c7c 9d3d

pre_layer.5.bias f4 [32]
-2.3968256 -1.2757659 -5.4460564 -3.124189 -0.45604104 -3.6876616 9.211143 -2.3803184
8.155727 2.2760177 5.6825366 -2.1810458 1.2066008 -3.3550467 -2.3046846 0.14817414
-3.414254 -2.5708575 -5.7749887 -2.5770853 1.5175966 9.406763 2.1013217 -2.7167244
-2.400629 -2.4215147 -1.797451 4.0299244 -1.3544533 -4.087253 -2.755649 2.6327817
00000000: 9765 19c0 4c4c a3bf 1846 aec0 b6f2 47c0
00000010: 367e e9be a602 6cc0 d760 1341 2357 18c0
00000020: dc7d 0241 46aa 1140 57d7 b540 4196 0bc0
00000030: e571 9a3f 16b9 56c0 f47f 13c0 f6ba 173e
00000040: 2383 5ac0 ee88 24c0 b5cc b8c0 f7ee 24c0
00000050: 9b40 c23f 1a82 1641 0e7c 0640 d0de 2dc0
00000060: e8a3 19c0 19fa 1ac0 e012 e6bf 24f5 8040
00000070: ba5e adbf c7ca 82c0 8e5c 30c0 7f7f 2840

conv4_1.weight f4 [1, 32, 1, 1]
0.19311759 -0.08623786 -0.08261382 0.2622463 -0.19879244 -0.011572918 -0.14782506 0.33341888
-0.09890358 -0.07809045 -0.08875578 0.3514099 0.085859545 -0.3145593 0.24926084 -0.066546276
-0.11451913 -0.046939943 0.27488032 0.056015946 0.06774459 -0.0637616 0.097755864 0.11666208
0.3352494 0.37738675 0.2742184 0.09362201 0.104856685 0.29056478 -0.83413774 0.13047867
00000000: 9ec0 453e 7a9d b0bd 6f31 a9bd 2645 863e
00000010: 3f90 4bbe 569c 3dbc 745f 17be e1b5 aa3e
00000020: f68d cabd e3ed 9fbd 97c5 b5bd 00ec b33e
00000030: 21d7 af3d eb0d a1be 3c3e 7f3e 6a49 88bd
00000040: 0189 eabd 1944 40bd 1dbd 8c3e fa70 653d
00000050: adbd 8a3d 7195 82bd 3a34 c83d 87ec ee3d
00000060: cfa5 ab3e d638 c13e 5b66 8c3e e5bc bf3d
00000070: 1abf d63d e8c4 943e 0d8a 55bf 339c 053e

conv4_2.weight f4 [4, 32, 1, 1]
-0.10855609 -0.0009214872 0.077198155 -0.09710472 -0.06228971 -0.25716603 -0.001683567 0.00078310934
-0.0005307742 -0.00075010856 -0.00022288998 -0.0010857626 -0.00049327087 -0.003539275 0.0007967563 -0.0007015533
-0.0001295647 -0.08832253 0.19095646 0.14436805 -2.6484686e-05 -0.0009688374 -8.139506e-05 -0.0006118564
-0.0012337948 -0.001873508 -0.0008567759 0.0010165331 -0.0025564248 -0.00027655257 0.01937797 7.061133e-05
-0.050206233 -0.0020637093 -0.25605038 -0.20934044 0.015003085 0.03548577 -0.0023948716 0.0010847835
0.00042268695 -0.00019375692 -0.00064717385 -0.0001527566 -0.0005124255 0.00025148803 0.000987649 -0.00017527016
-0.0005471438 0.0073953946 0.16997483 0.21998951 0.00087035116 -0.0005408386 4.7591337e-05 -0.0010766779
0.000103939135 -0.0030940352 -0.002941822 0.0010005885 -0.0039263056 0.00089272833 0.06634257 0.00070994254
-0.109800644 0.0005501515 0.11534754 0.22496703 0.06578694 -0.09806626 0.00061129656 -0.00020169113
0.0002604308 0.00046643335 0.00039174204 0.0013990971 0.00019207702 0.0039662034 0.0019122803 0.00061119173
1.6629401e-05 -0.23096126 -0.10701567 0.05458525 -0.0007265017 0.00048890506 -0.00022879554 0.00030935038
-0.0011406759 0.0009110937 0.0013308387 -0.00081571756 0.0033080312 0.0003602778 -0.036710337 -0.0007497981
0.076500736 0.00057244377 -0.24076976 0.2042948 0.020501755 -0.06008429 0.0031002641 -0.0004691091
0.0012286521 0.0009732848 0.001078745 0.00064317125 -1.8437631e-05 0.0039915564 0.0007272127 0.0013349362
0.00017963721 0.024075052 -0.25718495 0.094122306 -0.00042362316 0.0015197411 -0.0001379439 0.00073327095
7.550881e-05 0.00083490595 -0.0012414069 -0.0021178161 0.0033269622 0.00046494388 0.004470796 -0.00041798077
00000000: a852 debd f68f 71ba 111a 9e3d d7de c6bd
00000010: 7f23 7fbd 44ab 83be 22ab dcba 9449 4d3a
00000020: a723 0bba efa2 44ba 93b7 69b9 2650 8eba
00000030: d94e 01ba 2ef3 67bb 69dd 503a 72e8 37ba
00000040: c2db 07b9 71e2 b4bd 178a 433e 38d5 133e
00000050: 6e2b deb7 94f9 7dba a4b2 aab8 fd64 20ba
00000060: 49b7 a1ba 7f90 f5ba 4299 60ba 313d 853a
00000070: b189 27bb 42fe 90b9 8cbe 9e3c 2b15 9438
00000080: 0da5 4dbd 4c3f 07bb 0919 83be 575d 56be
00000090: 80cf 753c 8759 113d 47f3 1cbb 4b2f 8e3a
000000a0: 159c dd39 3a2b 4bb9 1aa7 29ba 4a2d 20b9
000000b0: 4b54 06ba 27da 8339 0074 813a bac8 37b9
000000c0: 336e 0fba 1155 f23b e20d 2e3e ee44 613e
000000d0: 4728 643a 10c7 0dba cf9c 4738 511f 8dba
000000e0: e6f9 d938 4cc5 4abb 95cb 40bb 2e26 833a
000000f0: 3da8 80bb fc05 6a3a 9dde 873d 701b 3a3a
00000100: 29df e0bd 0b38 103a 553b ec3d c25d 663e
00000110: 4ebb 863d f7d6 c8bd 6b3f 203a 0d7d 53b9
00000120: 6e8a 8839 a08b f439 ba62 cd39 e961 b73a
00000130: 4868 4939 edf6 813b 7ba5 fa3a 6238 203a
00000140: 5e7f 8b37 1c81 6cbe 082b dbbd c894 5f3d
00000150: b472 3eba dd29 003a d6e8 6fb9 4e30 a239
00000160: bb82 95ba 77d6 6e3a 896f ae3a e1d5 55ba
00000170: 8ecb 583b abe3 bc39 945d 16bd 198e 44ba
00000180: 6bac 9c3d 0d10 163a 598c 76be a832 513e
00000190: 4cf3 a73c f21a 76bd cd2d 4b3b c2f2 f5b9
000001a0: b90a a13a 0a24 7f3a ad64 8d3a 7e9a 283a
000001b0: 83aa 9ab7 9acb 823b 6ba2 3e3a 07f9 ae3a
000001c0: ff5c 3c39 0b39 c53c bfad 83be 32c3 c03d
000001d0: bd19 deb9 0d32 c73a 09a5 10b9 fb38 403a
000001e0: 7c5a 9e38 97dd 5a3a b4b6 a2ba 0fcb 0abb
000001f0: 2a09 5a3b b6c3 f339 c17f 923b 6e24 dbb9

conv4_2.bias f4 [4]
0.050829146 -0.061486255 -0.060227524 0.036323417
00000000: 3932 503d 03d9 7bbd 23b1 76bd ddc7 143d
