model_store/rnet-ea379816.pt (torch_old, 237694 bytes, 11 tensors)

pre_layer.0.weight f4 [28, 3, 3, 3]
0.09985741 -0.7468884 -0.43277392 0.038120415 -0.48086146 -0.3498521 -0.32715264 -0.57542336
-0.1329606 0.7546796 -0.15842348 0.61570334 0.67437667 0.18719725 0.5072159 0.39991915
0.09612673 0.6588885 0.34781346 -0.4025338 -0.1615248 0.13726804 -0.50593567 -0.19716974
-0.19768965 -0.39420876 -0.19971643 -0.4333356 -0.40226048 -0.32501137 -0.24156263 -0.20373084
-0.06196334 -0.33826727 0.16085927 -0.4802032 -0.072120994 -0.093558796 -0.088725515 0.22979656
0.19013144 0.15273389 0.07632524 0.26822412 0.10006741 0.008962607 -0.16865107 -0.00826392
0.46380547 0.29985082 0.3469725 0.37870106 0.61987334 0.17671688 0.19526233 -0.23346812
0.2051295 0.301772 0.22046103 0.19488424 -0.3715683 -0.26619017 0.15071261 0.17763862
0.0945529 -0.29726154 -0.048879698 0.32817137 -0.068332426 -0.3781456 -0.31212583 0.049963985
0.5383713 0.36627588 -0.0910119 -0.21559003 0.21100606 -0.028406829 -0.06757059 -0.22731414
-0.30211064 0.9402351 0.461203 -0.3610304 0.568877 -0.6192425 -0.83399755 -0.26508987
-0.5246297 0.13118988 0.5461819 0.14103915 -0.30585125 0.02713225 -0.50722194 -0.3848536
-0.251277 -0.36420438 0.4038204 0.5445088 0.31605053 -0.007023391 0.14989999 -0.03894645
0.03882903 0.09328567 0.092698 0.9800114 0.046480533 0.009941522 0.091270946 0.11354901
0.05898112 0.31317022 0.07227513 -0.039204657 -0.042319126 0.35965145 0.11868116 0.22027318
0.2282577 0.037788294 -0.09175055 0.23654184 -0.2080007 0.07326286 0.35626322 0.31869704
0.39022806 0.35630417 0.069323584 0.20240356 0.35123453 0.10646436 0.012739462 0.011673867
0.18928881 0.23952061 -0.28354904 -0.21909505 -0.2755206 0.44022575 0.15912673 -0.3953263
0.08078335 0.1344165 0.085860856 -0.16362052 -0.40846622 -0.16449277 0.29028904 -0.03462304
-0.14102945 -0.074164726 0.082468495 0.27062792 -0.32457262 -0.24801609 -0.04559208 0.34061122
0.1695758 -0.06682112 0.26354212 -0.76295877 -0.17040876 0.033837717 -0.22667985 -0.23235779
0.46408474 0.3898246 0.5722896 0.3179217 0.024801655 0.10548958 -0.057653446 -0.3597657
-0.20952052 -0.26752403 -0.51588804 -0.1933202 0.1744322 -0.066943 0.21470314 0.15675846
-0.017533626 -0.1406793 -0.5577438 -0.33396083 -0.16743842 -0.46166694 -0.08054605 -0.00095041085
-0.18270242 0.15020137 0.20267282 -0.12573288 0.11345801 0.08599057 -0.0997752 -0.09530263
0.25145948 -0.15499547 -0.1711202 -0.018018603 -0.45727372 -0.0052900915 -0.10659378 -0.16228692
0.092196286 -0.051908836 -0.3047806 -0.11620142 -0.28287712 -0.26262093 -0.105327606 -0.016220655
0.08182395 -0.090567574 -0.046904016 -0.14761087 0.08867174 -0.026850566 -0.2756458 -0.08049135
0.10818845 0.28863418 -0.109052025 -0.084744625 -0.08995329 -0.06834345 -0.059778202 0.040476993
-0.1035015 -0.014533265 -0.07953205 -0.14001812 -0.12829009 -0.16556124 -0.14783062 -0.35382864
-0.26471195 -0.17485169 -0.27062634 0.16682336 0.047378507 -0.04261792 -0.14968625 0.049549956
0.27549732 -0.17736302 0.14429958 0.15373692 0.14245665 0.46850345 0.3747644 -0.13970296
00000000: 0b82 cc3d 1434 3fbf 8b94 ddbe 2724 1c3d
00000010: 7933 f6be d01f b3be 8d80 a7be f24e 13bf
00000020: d326 08be af32 413f c439 22be bc9e 1d3f
00000030: f3a3 2c3f a3b0 3f3e e7d8 013f 34c2 cc3e
00000040: 17de c43d ebac 283f 9b14 b23e e918 cebe
00000050: c266 25be fe8f 0c3e 0085 01bf dde6 49be
00000060: 286f 4abe bbd5 c9be 7782 4cbe 2ade ddbe
00000070: 16f5 cdbe e467 a6be 325c 77be d19e 50be
00000080: 45cd 7dbd 5e31 adbe 4bb8 243e 32dd f5be
00000090: 2cb4 93bd c19b bfbd b9b5 b5bd ca4f 6b3e
000000a0: d1b1 423e 4666 1c3e 6850 9c3d ac54 893e
000000b0: 24f0 cc3d e6d7 123c deb2 2cbe 6565 07bc
000000c0: e977 ed3e 0c86 993e 61a6 b13e 1be5 c13e
000000d0: 05b0 1e3f 45f5 343e d9f2 473e 4412 6fbe
000000e0: 780d 523e dc81 9a3e 89c0 613e bc8f 473e
000000f0: 333e bebe 144a 88be 6854 1a3e e6e6 353e
00000100: f3a4 c13d aa32 98be 1436 48bd 1406 a83e
00000110: dff1 8bbd 4d9c c1be f5ce 9fbe 09a7 4c3d
00000120: b4d2 093f 8388 bb3e 7264 babd a2c3 5cbe
00000130: f911 583e 70b5 e8bc 7362 8abd 0ac5 68be
00000140: 3fae 9abe 3fb3 703f cd22 ec3e fad8 b8be
00000150: eca1 113f ad86 1ebf dd80 55bf dcb9 87be
00000160: 224e 06bf a456 063e 94d2 0b3f 916c 103e
00000170: 8998 9cbe 7444 de3c 4cd9 01bf 880b c5be
00000180: 61a7 80be ff78 babe 8cc1 ce3e ee64 0b3f
00000190: 60d1 a13e 7924 e6bb 627f 193e 5086 1fbd
000001a0: 300b 1f3d 8f0c bf3d 73d8 bd3d 07e2 7a3f
000001b0: 5f62 3e3d c4e1 223c 43ec ba3d 628c e83d
000001c0: 3096 713d d957 a03e fc04 943d 1095 20bd
000001d0: d256 2dbd 3c24 b83e 1c0f f33d 4b8f 613e
000001e0: 63bc 693e e6c7 1a3d b6e7 bbbd 0638 723e
000001f0: 23fe 54be d70a 963d 2268 b63e 422c a33e
00000200: f9cb c73e 806d b63e 86f9 8d3d e142 4f3e
00000210: 03d5 b33e fd09 da3d 2db9 503c bf43 3f3c
00000220: edd4 413e e444 753e 572d 91be 745a 60be
00000230: 0911 8dbe 4565 e13e 1ef2 223e 3568 cabe
00000240: be71 a53d 7ba4 093e d1d7 af3d 238c 27be
00000250: 7c22 d1be cb70 28be c4a0 943e e4d0 0dbd
00000260: 066a 10be ade3 97bd 3ee5 a83d be8f 8a3e
00000270: 622e a6be eef7 7dbe c3be 3abd 9864 ae3e
00000280: 47a5 2d3e 83d9 88bd feee 863e 4451 43bf
00000290: a27f 2ebe 6b99 0a3d c31e 68be 33ef 6dbe
000002a0: 849c ed3e 1797 c73e 9281 123f a2c6 a23e
000002b0: d72c cb3c ec0a d83d 0526 6cbd 3633 b8be
000002c0: 8c8c 56be e9f8 88be 3d11 04bf bbf5 45be
000002d0: 5b9e 323e 6919 89bd 24db 5b3e 4a85 203e
000002e0: aea2 8fbc 3c0e 10be 4cc8 0ebf eafc aabe
000002f0: fa74 2bbe 9c5f ecbe 54f5 a4bd fe24 79ba
00000300: 5816 3bbe 63ce 193e 7789 4f3e 1fc0 00be
00000310: ac5c e83d d31b b03d f156 ccbd 062e c3bd
00000320: 4cbf 803e 22b7 1ebe 223a 2fbe c09b 93bc
00000330: c81f eabe 8158 adbb d74d dabd 8b2e 26be
00000340: 68d1 bc3d 5c9e 54bd 340c 9cbe 03fb edbd
00000350: 45d5 90be 4076 86be 00b6 d7bd 2ee1 84bc
00000360: 5193 a73d 7e7b b9bd 6d1e 40bd 4e27 17be
00000370: 8799 b53d b8f5 dbbc 7221 8dbe a6d8 a4bd
00000380: e891 dd3d dcc7 933e ab56 dfbd 978e adbd
00000390: 6e39 b8bd a7f7 8bbd fdd9 74bd 34cb 253d
000003a0: 98f8 d3bd ee1c 6ebc b3e1 a2bd e960 0fbe
000003b0: 7a5e 03be e388 29be e960 17be 0729 b5be
000003c0: 5388 87be 520c 33be 898f 8abe bed3 2a3e
000003d0: f70f 423d 2190 2ebd 5a47 19be e5f4 4a3d
000003e0: fc0d 8d3e a79e 35be 45c3 133e 366d 1d3e
000003f0: 28e0 113e afdf ef3e 1fe1 bf3e 4b0e 0fbe

pre_layer.0.bias f4 [28]
-0.47722355 0.7341557 -1.177013 -0.744391 -1.6678834 -1.9564208 0.41479808 -2.0886362
-2.0825653 -0.3650972 -0.21523228 -0.858033 -0.6812961 0.8677409 -0.8437976 -0.81512636
0.30379206 0.13135733 -1.2017263 -2.046073 -1.1198581 -0.7924095 0.40589175 0.35438678
-0.8525966 -1.1798332 -0.4546723 -0.6640563
00000000: a556 f4be a1f1 3b3f 5da8 96bf 6990 3ebf
00000010: 347d d5bf ff6b fabf 6a60 d43e 37ac 05c0
00000020: c048 05c0 05ee babe da65 5cbe 0da8 5bbf
00000030: 6c69 2ebf 4524 5e3f 1f03 58bf 1fac 50bf
00000040: a28a 9b3e 8982 063e 2bd2 99bf dcf2 02c0
00000050: 8357 8fbf 59db 4abf 0bd1 cf3e 2f72 b53e
00000060: c543 5abf c604 97bf cfca e8be 98ff 29bf

pre_layer.3.weight f4 [48, 28, 3, 3]
0.5707624 0.13083243 0.1617716 0.015920365 -0.004358797 -0.10481155 -0.20139837 -0.36776546
-0.24790585 0.5787672 -0.11032545 0.07923849 -0.33197775 -1.3111163 -0.505584 0.044443022
-0.46036437 -0.0962005 -0.011745512 -1.0475425 -1.313023 -0.6811167 -1.1349764 -1.1964669
-0.0777035 -0.016039126 0.2451934 -0.58291936 -1.2284813 -0.60864615 -0.9273825 -0.57675093
-0.2904667 0.5463505 0.45547733 0.15209135 -0.32560337 0.2287037 0.2826594 -0.10994027
0.13156314 0.5130315 0.081952415 0.4159332 0.79543704 -0.030387016 -0.54239464 -0.31762025
-0.16381116 -0.025335284 -0.1995857 0.20118798 0.005410854 -0.051185172 0.3161697 0.116802774
-0.36142218 0.40518126 -0.051980957 -0.46405792 -0.5052813 -0.8222081 -0.5925384 0.31818187
0.46559352 -0.2107991 -0.13544174 -0.127966 -0.18330987 -0.3836147 0.23962754 0.69175196
0.4732999 0.42484936 0.22141811 0.55931 0.16849676 0.19099744 0.055622883 -0.14021726
0.011608822 0.56113356 -0.09580693 -0.64084536 -0.36632997 -0.66196066 -0.14996569 -0.16152894
-0.10525536 0.21210022 -0.5051715 -0.31278315 0.29189608 -0.1571988 -0.6978418 -0.9398904
0.11649839 -0.34787333 -1.4148289 -0.59213954 0.13762145 -0.042556405 -0.5679246 -0.40815574
-0.42190257 -0.13285725 -0.26692545 -0.36404675 -0.3101502 -0.27097607 -0.48792416 -0.14277323
-0.055607483 0.0063477075 0.2346301 0.5253886 0.28280267 0.6548934 -0.0141255325 0.22646947
-0.39002976 -0.33582476 -0.43922395 -0.026075898 -0.5359504 -0.57926315 0.31138545 0.46297136
0.29362714 0.35144284 0.4727694 0.4426775 1.1774536 0.42316043 0.37398952 0.21319519
0.17849948 0.38139427 0.22134592 -0.36239868 0.40951172 0.35345492 0.37582606 0.18678413
-0.46766025 -0.3077798 -0.50201684 0.31855303 -0.09705305 0.020318748 0.06508737 -0.34866127
0.32836673 0.32341227 -0.2733767 0.07760853 -0.2480625 -0.57728887 0.33159545 -0.82099545
-0.5046887 -0.45477402 -0.08479239 0.13076602 -0.26841924 -0.79794437 -0.6464996 -0.6062858
-0.73015785 -0.18385148 0.058174707 0.5795387 0.4583916 0.53969526 0.5995583 0.5161913
0.42527825 0.7280444 0.65780085 0.7260969 0.890871 0.2504181 0.53983176 0.69926745
-0.045425296 0.35828292 0.3083178 -0.016277986 0.17120755 0.2975328 -0.19851872 -0.07960523
0.026152147 -0.7096196 0.034082033 0.2613177 0.038947757 0.43243682 0.11351049 -0.3559953
-0.08057042 -0.44544157 -0.18754233 -0.029013587 -0.48444578 -0.559896 -0.31333497 -0.41356546
-0.48137677 -0.44077468 0.08040358 -0.35451913 -0.74917287 -0.7454679 -0.51870203 -0.5886917
-0.56244516 -0.66379994 0.7664945 -0.2331019 -0.38364416 0.81230754 0.3099585 -0.021262962
0.2526038 0.26094595 -0.039275724 0.3177477 0.06792029 -0.17198083 0.04110001 -0.16403979
-0.24516185 -0.24825181 -1.058922 -0.6708145 -0.6461502 -0.8025083 -0.5565666 -0.74860054
-0.48223826 -0.9746245 -0.6292031 0.14425771 0.67355525 0.74840343 0.313843 0.29658324
0.4752828 1.0016854 0.74677074 0.029441766 -0.9965417 -0.043511547 -0.5336193 -0.47364372
00000000: 7c1d 123f f0f8 053e 74a7 253e 6d6b 823c
00000010: 3dd4 8ebb 70a7 d6bd 603b 4ebe c14b bcbe
00000020: 08db 7dbe 162a 143f 4ff2 e1bd ca47 a23d
00000030: fdf8 a9be a9d2 a7bf f46d 01bf e309 363d
00000040: e1b4 ebbe c504 c5bd 3f70 40bc df15 86bf
00000050: 2311 a8bf aa5d 2ebf e846 91bf d425 99bf
00000060: 0323 9fbd 7c64 83bc fb13 7b3e 343a 15bf
00000070: e03e 9dbf 3cd0 1bbf f168 6dbf f3a5 13bf
00000080: 0db8 94be a0dd 0b3f 5334 e93e d6bd 1b3e
00000090: 7cb5 a6be 4d31 6a3e bcb8 903e 5d28 e1bd
000000a0: 7db8 063e 0856 033f abd6 a73d 32f5 d43e
000000b0: c3a1 4b3f 31ee f8bc 60da 0abf 1f9f a2be
000000c0: 1dbe 27be f18b cfbc 3260 4cbe 3904 4e3e
000000d0: 884d b13b 8ba7 51bd ffe0 a13e 4b36 ef3d
000000e0: 540c b9be eb73 cf3e fce9 54bd 0099 edbe
000000f0: 1e5a 01bf 3b7c 52bf 99b0 17bf bce8 a23e
00000100: 4662 ee3e b8db 57be 3db1 0abe 8509 03be
00000110: 95b5 3bbe 2569 c4be ec60 753e a816 313f
00000120: 5d54 f23e db85 d93e 6ebb 623e f12e 0f3f
00000130: 6a8a 2c3e d594 433e d2d4 633d 1d95 0fbe
00000140: ee32 3e3c 73a6 0f3f 6c36 c4bd 710e 24bf
00000150: 9a8f bbbe 4176 29bf 9b90 19be d867 25be
00000160: 1f90 d7bd cd30 593e eb52 01bf 1d25 a0be
00000170: 6773 953e b9f8 20be c3a5 32bf a89c 70bf
00000180: b596 ee3d 741c b2be 1d19 b5bf 7596 17bf
00000190: a3ec 0c3e a04f 2ebd 8263 11bf caf9 d0be
000001a0: 9d03 d8be bb0b 08be 74aa 88be 5664 babe
000001b0: 02cc 9ebe 60bd 8abe 32d1 f9be 2533 12be
000001c0: acc4 63bd 6e00 d03b df42 703e de7f 063f
000001d0: 83cb 903e 18a7 273f c76e 67bc 9de7 673e
000001e0: fbb1 c7be 39f1 abbe f6e1 e0be 1f9d d5bc
000001f0: 0c34 09bf 974a 14bf ea6d 9f3e 950a ed3e
00000200: 4c56 963e 51f0 b33e d50e f23e a0a6 e23e
00000210: cdb6 963f 7ca8 d83e 8e7b bf3e d74f 5a3e
00000220: 91c8 363e 1c46 c33e 81a8 623e 528c b9be
00000230: 85ab d13e 0bf8 b43e 466c c03e 5744 3f3e
00000240: 2a71 efbe 5095 9dbe 2d84 00bf 6219 a33e
00000250: c0c3 c6bd 8173 a63c 874c 853d bb83 b2be
00000260: af1f a83e 4b96 a53e 08f8 8bbe 39f1 9e3d
00000270: 1904 7ebe 34c9 13bf e1c6 a93e c22c 52bf
00000280: 4733 01bf 24d8 e8be a2a7 adbd 87e7 053e
00000290: 3f6e 89be 1546 4cbf ff80 25bf 8c35 1bbf
000002a0: a0eb 3abf 9043 3cbe 9a48 6e3d a65c 143f
000002b0: 4eb2 ea3e 7829 0a3f a77c 193f 1d25 043f
000002c0: 12be d93e 1e61 3a3f a365 283f 7de1 393f
000002d0: 1f10 643f cd36 803e 6a32 0a3f 3103 333f
000002e0: e00f 3abd dc70 b73e d5db 9d3e 6959 85bc
000002f0: 0851 2f3e 3856 983e 7e48 4bbe 1108 a3bd
00000300: 073d d63c a1a9 35bf 9a99 0b3d 6fcb 853e
00000310: af87 1f3d 5c68 dd3e 3078 e83d 0445 b6be
00000320: 1b02 a5bd eb10 e4be 190b 40be e7ad edbc
00000330: 4709 f8be 5855 0fbf 716d a0be dabe d3be
00000340: 0477 f6be 38ad e1be a2aa a43d 8883 b5be
00000350: cbc9 3fbf fcd6 3ebf a8c9 04bf 80b4 16bf
00000360: 68fc 0fbf cbee 29bf fc38 443f 44b2 6ebe
00000370: 026d c4be 63f3 4f3f e1b2 9e3e aa2f aebc
00000380: 4955 813e b59a 853e 95df 20bd d4af a23e
00000390: cb19 8b3d be1b 30be 7c58 283d 0cfa 27be
000003a0: b50b 7bbe b935 7ebe c28a 87bf 80ba 2bbf
000003b0: 196a 25bf 2f71 4dbf 267b 0ebf 49a4 3fbf
000003c0: efe7 f6be fe80 79bf 7413 21bf 4bb8 133e
000003d0: 1e6e 2c3f 5e97 3f3f 08b0 a03e c2d9 973e
000003e0: 4458 f33e 3a37 803f 5e2c 3f3f dc2f f13c
000003f0: 5b1d 7fbf 2a39 32bd 469b 08bf 6e81 f2be

pre_layer.3.bias f4 [48]
-0.83196515 -0.8399869 -0.65112 -0.7198235 -0.6515991 -0.24065581 0.08699577 -0.862138
-0.8856903 -0.85031384 -0.1638763 0.16490148 -0.7388654 -0.8261438 -0.650536 -0.48793876
-0.596585 -0.680905 -0.7441013 -0.81650835 -0.0055915248 0.561588 -0.56773573 -1.1750461
0.4039251 -0.55449003 -0.057777055 -0.4193608 -0.7843747 -0.5900207 -0.7818377 -0.68499935
-0.54232687 -1.8154248 -0.48734915 0.29032686 -1.0353005 0.04769601 0.08882834 -0.57560384
-0.40759215 -1.1856511 -0.26153126 -0.32242116 -0.8434784 0.11076943 -0.43781716 -0.044214364
00000000: abfb 54bf 6209 57bf cdaf 26bf 5a46 38bf
00000010: 33cf 26bf 7a6e 76be d72a b23d 13b5 5cbf
00000020: 99bc 62bf 2bae 59bf 30cf 27be efdb 283e
00000030: 4826 3dbf 297e 53bf 8789 26bf 1cd3 f9be
00000040: cbb9 18bf ca4f 2ebf 6c7d 3ebf b106 51bf
00000050: 1c39 b7bb 3bc4 0f3f 2157 11bf e967 96bf
00000060: 45cf ce3e 0ff3 0dbf a2a7 6cbd 75b6 d6be
00000070: c8cc 48bf 990b 17bf 8426 48bf 1e5c 2fbf
00000080: efd5 0abf d75f e8bf d485 f9be b9a5 943e
00000090: ba84 84bf e45c 433d a2eb b53d c65a 13bf
000000a0: ebaf d0be 6ac3 97bf 6de7 85be 6314 a5be
000000b0: 33ee 57bf 15db e23d 9229 e0be 1f1a 35bd

pre_layer.6.weight f4 [64, 48, 2, 2]
-0.04184356 0.15638286 -0.23716621 0.020552857 0.5104971 -0.07466661 0.41866505 0.43804562
0.020765 0.219615 -0.2679705 -0.47776264 -0.30637878 -0.7675169 -0.22946274 -0.3947024
-0.4654881 -0.38543123 -0.09726402 0.16178457 0.034264646 0.08262052 -0.054386318 0.21826711
0.36166057 0.14168344 -0.89747864 -0.5573594 0.11811933 -0.22531448 0.7081395 0.70495754
-0.52531314 -0.29507622 -0.20846696 0.23390006 -0.19831587 -0.36565003 0.026963517 0.034704905
-0.17806505 0.14554098 0.054707214 0.29051292 0.15701789 0.1251492 -0.020474339 0.14944464
-0.62520325 -0.64499027 -0.5505654 -0.31945127 0.2408146 0.06720239 -0.087614425 0.099916175
0.20206608 0.11039475 -0.08520951 0.11698864 0.25051147 0.03383824 0.13954306 0.49026418
-0.72091854 -0.40905088 -0.7538619 -0.6764579 0.26872802 0.50824803 0.4863894 0.78385985
0.45457754 0.3962746 0.35969597 0.6779857 -0.32412836 0.0009977225 -0.1163403 0.1756451
0.052054215 0.3395715 0.40283012 0.098219775 -0.339716 -0.42502967 -0.3402262 -0.30725098
0.6730376 0.25703064 0.011555547 -0.0064963074 0.5037546 0.40774453 0.70258516 0.4335939
-0.250306 -0.42887503 -0.11652846 -0.43969932 0.09374958 0.05088254 0.033226803 -0.06669886
-0.6404426 -0.51138604 -0.24717426 -0.69115067 0.051658362 0.25920695 0.18023147 0.2718301
-0.20594485 -0.32181612 0.01874996 -0.097867064 0.14180118 0.072659835 -0.06291296 -0.30171067
0.2141427 0.12297565 0.120860316 0.2662287 0.52043575 0.12106103 0.26496574 0.61148167
0.7000452 0.44999656 0.8778935 0.4373822 0.22695392 0.025260018 -0.07292652 -0.042547043
1.2533944 -0.4257768 1.0331498 0.58624214 0.08439871 0.11425277 -0.06740982 -0.16972366
0.07679638 0.00474085 0.24146156 0.18380067 -0.065120935 -0.22656287 0.16550368 0.5866133
0.5103523 0.5508997 -0.21768254 -1.1673362 0.30590683 0.13863026 0.42963433 0.50021034
-0.1318535 -0.3052944 0.39097047 -0.07259776 -0.34939617 0.44280097 0.13809822 -0.22903098
-0.13822386 -0.263497 -0.057284717 -0.16672416 -0.3648345 -0.41870335 -0.31050992 0.040775746
0.18252777 0.13647032 0.2711768 0.22656596 -0.353942 -0.56858754 -0.3730094 -0.46506894
-0.13709952 -0.10764539 -0.27220964 0.26352432 0.38149253 0.43713453 0.45111367 0.21470027
0.17733818 0.5099292 0.274457 0.4456508 0.19413419 0.3863692 0.70672625 0.3865428
0.9822253 0.80863124 1.0970088 1.2095584 -0.06969962 0.4879788 0.41899842 0.40109992
0.35397604 0.11795977 0.9249852 -0.12260758 0.959126 1.0072117 0.6720919 0.94009507
-0.10259231 -0.3597495 0.910492 0.56892383 -0.92394185 -0.1476466 -1.2146859 -0.5409447
0.3767702 1.0461303 0.57766706 1.22151 -0.46183032 -0.56420326 0.6563354 0.31682432
0.63590807 0.4012482 0.62869996 1.1612173 0.4339394 0.37945473 0.2603232 0.2834797
0.5312749 0.2964396 0.34966692 0.6157209 0.51110035 0.48980668 0.42747635 0.32911795
-0.5846615 -0.15948838 -0.33122134 -0.0037227406 -0.06454193 -0.11184493 0.1681625 -0.20272683
00000000: 2764 2bbd d422 203e b3db 72be 775e a83c
00000010: f0af 023f cfea 98bd 445b d63e 8447 e03e
00000020: 5c1b aa3c c1e2 603e 6e33 89be 4e9d f4be
00000030: aedd 9cbe fd7b 44bf 48f8 6abe 6f16 cabe
00000040: 7554 eebe 3e57 c5be 5c32 c7bd dbaa 253e
00000050: 1659 0c3d f234 a93d 30c4 5ebd 6a81 5f3e
00000060: 932b b93e 7715 113e 29c1 65bf 1baf 0ebf
00000070: 8ce8 f13d d7b8 66be a148 353f 1978 343f
00000080: ec7a 06bf 3b14 97be 5d78 55be 7f83 6f3e
00000090: 5113 4bbe 7b36 bbbe 98e2 dc3c bb26 0e3d
000000a0: af56 36be b208 153e ac14 603d 1cbe 943e
000000b0: 4cc9 203e 1d27 003e cdb9 a7bc 0408 193e
000000c0: 520d 20bf 151e 25bf dbf1 0cbf 1e8f a3be
000000d0: 1a98 763e 68a1 893d 316f b3bd daa0 cc3d
000000e0: 69ea 4e3e a516 e23d 5382 aebd bd97 ef3d
000000f0: 0a43 803e f799 0a3d 60e4 0e3e e803 fb3e
00000100: 1e8e 38bf 1e6f d1be 18fd 40bf 582c 2dbf
00000110: b896 893e 8b1c 023f 0808 f93e 0aab 483f
00000120: 63be e83e 81e4 ca3e 122a b83e 7990 2d3f
00000130: 27f4 a5be 03c6 823a d343 eebd 4fdc 333e
00000140: cd36 553d 51dc ad3e c03f ce3e 7327 c93d
00000150: 41ef adbe 7d9d d9be 2132 aebe 0050 9dbe
00000160: 314c 2c3f 8599 833e 7a53 3d3c fade d4bb
00000170: 10f6 003f e4c3 d03e 9fdc 333f 0500 de3e
00000180: 1c28 80be 8295 dbbe 79a6 eebd 4520 e1be
00000190: c8ff bf3d 366a 503d d418 083d 6999 88bd
000001a0: 0cf4 23bf 32ea 02bf 401b 7dbe 40ef 30bf
000001b0: b897 533d c6b6 843e 998e 383e 512d 8b3e
000001c0: 35e3 52be 15c5 a4be 8499 993c 876e c8bd
000001d0: 5434 113e aece 943d 83d8 80bd d279 9abe
000001e0: 3948 5b3e a8da fb3d 9d85 f73d 214f 883e
000001f0: 473b 053f d8ee f73d 97a9 873e 108a 1c3f
00000200: 2a36 333f f365 e63e a1bd 603f 8ff0 df3e
00000210: 9c66 683e 19ee ce3c 805a 95bd cf45 2ebd
00000220: 3a6f a03f 6bff d9be 413e 843f f713 163f
00000230: 3bd9 ac3d 5bfd e93d 290e 8abd 0acc 2dbe
00000240: 6c47 9d3d 2259 9b3b b341 773e 3e36 3c3e
00000250: 205e 85bd 1900 68be cc79 293e 4a2c 163f
00000260: 73a6 023f c307 0d3f 2ce8 5ebe 466b 95bf
00000270: d29f 9c3e 17f5 0d3e 08f9 db3e c90d 003f
00000280: 9b04 07be 8c4f 9cbe 482d c83e 22ae 94bd
00000290: 0ee4 b2be cfb6 e23e 9f69 0d3e 1987 6abe
000002a0: 8e8a 0dbe 14e9 86be 61a3 6abd bdb9 2abe
000002b0: 96cb babe 4960 d6be 28fb 9ebe 7804 273d
000002c0: 8fe8 3a3e e0be 0b3e afd7 8a3e e800 683e
000002d0: e337 b5be f48e 11bf 17fb bebe 841d eebe
000002e0: d163 0cbe 3075 dcbd 105f 8bbe a9ec 863e
000002f0: fd52 c33e 19d0 df3e 5ff8 e63e 63da 5b3e
00000300: 2498 353e b88a 023f a185 8c3e 572c e43e
00000310: 1dcb 463e 2fd2 c53e 03ec 343f f0e8 c53e
00000320: 1e73 7b3f 7502 4f3f c96a 8c3f cfd2 9a3f
00000330: adbe 8ebd 5bd8 f93e f686 d63e f85c cd3e
00000340: 593c b53e e494 f13d d4cb 6c3f af19 fbbd
00000350: 4889 753f 50ec 803f 370e 2c3f 12aa 703f
00000360: eb1b d2bd 1631 b8be 0116 693f fea4 113f
00000370: 7487 6cbf ac30 17be d47a 9bbf 5a7b 0abf
00000380: 06e8 c03e 99e7 853f fde1 133f 715a 9c3f
00000390: 0675 ecbe a06f 10bf 9905 283f cc36 a23e
000003a0: dfca 223f 6770 cd3e 7bf2 203f c5a2 943f
000003b0: 4e2d de3e e447 c23e 1549 853e 4024 913e
000003c0: a201 083f eec6 973e 8b07 b33e e39f 1d3f
000003d0: 79d7 023f f1c7 fa3e 2ede da3e 2682 a83e
000003e0: 60ac 15bf ec50 23be d895 a9be 39f9 73bb
000003f0: 8f2e 84bd f40e e5bd ca32 2c3e 9f97 4fbe

pre_layer.6.bias f4 [64]
-1.2292892 0.30241168 -1.0348992 -1.5141863 -0.77089375 -1.0725126 -1.201111 2.0012388
-1.0453374 -1.0790634 0.47831827 -1.2053719 0.21505621 0.47634378 -0.035402507 -0.8309703
-0.1159296 -0.13089599 -1.3884064 1.2093079 0.2215165 -0.3357186 -0.39978623 -0.7919021
-0.31914103 0.75641793 -1.5716895 0.4640174 -1.3904108 0.62536 -1.2490829 -0.28781965
-0.09147223 -0.86356616 0.31456602 0.5600078 -0.9617334 -1.3246578 -1.7222873 -0.5066418
0.053969435 -1.5394738 -0.31496027 0.29239777 -0.936561 -0.8457419 0.44566342 -0.77931815
-1.4953425 0.19722864 -0.50380486 -0.2979154 -0.7417349 0.057731345 -1.1980367 -1.2832965
-1.3709686 -0.15469512 -1.3876798 -1.0757903 -0.91394037 -1.045543 0.3991063 -0.9726004
00000000: 5959 9dbf b4d5 9a3e 9477 84bf dbd0 c1bf
00000010: 4b59 45bf 1848 89bf 01be 99bf 4c14 0040
00000020: 9ecd 85bf c01e 8abf 22e6 f43e a049 9abf
00000030: b237 5c3e 55e3 f33e 3802 11bd 78ba 54bf
00000040: 806c edbd 9909 06be 4db7 b1bf 9aca 9a3f
00000050: 39d5 623e 4fe3 abbe c8b0 ccbe 19ba 4abf
00000060: 7466 a3be 9ba4 413f 1f2d c9bf b093 ed3e
00000070: fbf8 b1bf 9817 203f f3e1 9fbf 195d 93be
00000080: cb55 bbbd ac12 5dbf cc0e a13e ac5c 0f3f
00000090: 2934 76bf 638e a9bf e973 dcbf 47b3 01bf
000000a0: 0e0f 5d3d 7a0d c5bf 7942 a1be 29b5 953e
000000b0: 76c2 6fbf 8b82 58bf ff2d e43e 6581 47bf
000000c0: 6267 bfbf 4ef6 493e 5bf9 00bf 5e88 98be
000000d0: 57e2 3dbf b477 6c3d 4459 99bf 0f43 a4bf
000000e0: e67b afbf 6668 1ebe 7e9f b1bf 7fb3 89bf
000000f0: fff7 69bf 5ad4 85bf a957 cc3e 57fc 78bf

fc.weight f4 [128, 256]
0.22443475 0.13778283 0.25359166 0.43947583 0.13549988 -0.650859 0.26892692 -0.020702379
0.3934585 0.35116068 0.4745753 0.4321225 0.28205076 1.2143524 0.3242219 0.94400865
1.2459612 1.0012593 0.16708088 0.17132641 0.24784511 0.28922883 0.23606077 0.32653072
-0.04494147 0.09522513 0.16554855 0.79303646 0.611856 -0.19943435 0.10880611 -0.59003586
0.553395 0.3649371 0.054611936 0.51008517 0.58512545 0.263281 0.46297982 0.6352581
-0.2579195 0.393298 -0.5017573 0.9063094 0.3044583 0.02296501 0.3493575 0.1450693
0.3256533 0.5015364 0.07208393 0.47481212 0.057082754 -0.20730497 0.11110423 -0.37037513
-0.2440199 -0.36466828 -0.4180357 -1.2331161 -0.04748648 -0.3953193 -0.13302791 -0.39670178
0.41024238 -0.2633088 0.4519477 -0.25115514 0.7735135 0.48920974 0.9446254 0.5760141
0.22341457 0.6520331 0.2917666 0.6880923 0.74126446 0.194117 0.49973243 0.37242725
0.59510154 0.33446187 0.15493001 -0.31902373 -0.50249815 -0.2637655 0.285828 0.51406455
0.31939217 0.39309093 0.5637171 0.16792382 0.54344904 0.5791788 0.38177526 0.8606707
-0.21191688 -0.33039463 0.39708188 0.26970276 0.52127415 0.6848896 0.49496406 -0.40816072
0.1325303 0.1456287 0.028515628 0.2919207 -0.36236644 -0.2127509 -0.118284315 -0.59131247
-0.21673045 -0.47532552 -0.28369442 0.20469807 0.6262191 0.7929007 -0.068505146 0.04186454
0.2113835 0.2489554 0.40478003 0.20640673 0.17798795 0.20619765 0.14763887 0.025510114
0.284102 -0.20353954 -0.24353266 0.11841545 -0.4648162 -0.8712283 -0.2816344 -0.87705547
-0.36304486 -0.36833152 -0.05166773 0.079685204 0.068570524 -0.395961 -0.23322676 0.021765707
0.3233024 0.55568755 0.12454796 0.3794093 0.017905725 -0.17675766 -0.09641016 -0.4359541
0.099274464 0.18127646 -0.06460663 -0.0005745381 -0.31878322 -0.5344012 -0.23279823 0.091128945
-0.6425023 0.029465184 -0.9329687 -0.38959357 0.19517155 0.077336 0.061314624 0.3716538
1.1333998 0.404174 -0.30189294 -0.43473196 -0.55682987 -0.5752042 -0.5027908 -0.5358236
0.34852815 0.47775918 0.026963435 0.37442008 0.747681 0.054118533 0.8166375 -0.405244
-0.3367984 -0.5041993 -0.5989438 -0.6532587 0.2724892 0.69486517 0.3600119 0.7504935
0.52795285 0.2191475 0.5191522 0.12553912 -0.4336997 -0.8518373 -0.096720345 -0.29413083
1.0710708 0.47101542 0.2951007 0.4328674 0.08840796 0.0306221 0.19088005 -0.36651835
-0.47798076 -0.70369655 -0.83479005 -0.6089021 0.4936065 0.8968988 -0.1293927 0.34205875
0.72604126 0.7747813 0.9419272 1.0974989 -0.040394153 -0.28431958 -0.71587056 -0.7501391
-0.081464484 0.125336 0.20013924 0.5738833 -1.0259916 -0.65250784 -1.1265099 -1.360049
0.56582314 0.71149296 0.43429157 0.7148655 -0.1303118 0.12898368 0.27219665 0.48698598
0.06980695 -0.06769274 0.41398245 -0.27561966 -0.07402088 0.07354611 -0.030330712 0.40750462
0.7275692 0.43300545 0.9481582 0.60794455 0.03242302 0.050760508 0.13672951 0.12821348
00000000: 39d2 653e f116 0d3e c4d6 813e fa02 e13e
00000010: 7bc0 0a3e b29e 26bf cab0 893e 0998 a9bc
00000020: 6473 c93e 55cb b33e 89fb f23e 293f dd3e
00000030: f568 903e e66f 9b3f 6a00 a63e 8daa 713f
00000040: a87b 9f3f 4429 803f 4017 2b3e 3170 2f3e
00000050: 1ccb 7d3e cd15 943e eab9 713e 092f a73e
00000060: 8c14 38bd 6505 c33d 8f85 293e 7004 4b3f
00000070: 98a2 1c3f 8538 4cbe bdd5 de3d 970c 17bf
00000080: 4bab 0d3f 09d9 ba3e c4b0 5f3d f194 023f
00000090: c8ca 153f c4cc 863e b10b ed3e 46a0 223f
000000a0: 060e 84be 5b5e c93e 2b73 00bf e503 683f
000000b0: f5e1 9b3e 1e21 bc3c fcde b23e 0c8d 143e
000000c0: 08bc a63e b164 003f bda0 933d 931a f33e
000000d0: 9bcf 693d c147 54be 9d8a e33d cfa1 bdbe
000000e0: 5ae0 79be cdb5 babe c608 d6be c0d6 9dbf
000000f0: 2f81 42bd 4b67 cabe 7838 08be 7f1c cbbe
00000100: 4a0b d23e 69d0 86be b065 e73e 6897 80be
00000110: fb04 463f b379 fa3e f8d2 713f a975 133f
00000120: cac6 643e a4eb 263f 6f62 953e d126 303f
00000130: 82c3 3d3f 9bc6 463e eedc ff3e c9ae be3e
00000140: 9358 183f 963e ab3e f9a5 1e3e 1457 a3be
00000150: b8a3 00bf 460c 87be 0c58 923e bc99 033f
00000160: 5f87 a33e 3743 c93e c44f 103f 39f4 2b3e
00000170: 7a1f 0b3f 1045 143f 0c78 c33e ea54 5c3f
00000180: bd00 59be 7c29 a9be 514e cb3e 7b16 8a3e
00000190: 3972 053f ed54 2f3f ee6b fd3e 71fa d0be
000001a0: 06b6 073e b11f 153e 9b99 e93c a176 953e
000001b0: 1888 b9be 5fdb 59be 0c3f f2bd 4160 17bf
000001c0: 96ee 5dbe de5d f3be 6540 91be 5f9c 513e
000001d0: e54f 203f 8afb 4a3f 6d4c 8cbd 277a 2b3d
000001e0: eb74 583e 2aee 7e3e 543f cf3e 495c 533e
000001f0: 7942 363e 7a25 533e a52e 173e 96fa d03c
00000200: d175 913e ab6c 50be a060 79be cd83 f23d
00000210: 64fc edbe d108 5fbf 6232 90be b586 60bf
00000220: 04e1 b9be f395 bcbe 8ba1 53bd ff31 a33d
00000230: b46e 8c3d 66bb cabe ffd2 6ebe ff4d b23c
00000240: e487 a53e 8a41 0e3f 0013 ff3d f041 c23e
00000250: 07af 923c f6ff 34be b172 c5bd 6035 dfbe
00000260: 6950 cb3d 89a0 393e 7b50 84bd 999c 16ba
00000270: 8e37 a3be 84ce 08bf a962 6ebe d0a1 ba3d
00000280: 087b 24bf f860 f13c 09d7 6ebf cf78 c7be
00000290: 0ddb 473e 5662 9e3d 0b25 7b3d 6849 be3e
000002a0: 3f13 913f e5ef ce3e b691 9abe 3095 debe
000002b0: 678c 0ebf 9540 13bf e6b6 00bf bc2b 09bf
000002c0: 4872 b23e da9c f43e 6ce2 dc3c fdb3 bf3e
000002d0: 0668 3f3f 65ab 5d3d 280f 513f 247c cfbe
000002e0: d770 acbe 3513 01bf 6254 19bf f63b 27bf
000002f0: b483 8b3e afe2 313f 7b53 b83e 5820 403f
00000300: eb27 073f 3468 603e 29e7 043f 548d 003e
00000310: e30d debe 0212 5abf 5115 c6bd 5198 96be
00000320: d918 893f ef28 f13e 7017 973e cca0 dd3e
00000330: 3c0f b53d 33db fa3c 0f76 433e 4ba8 bbbe
00000340: e5b9 f4be 7525 34bf cdb4 55bf 02e1 1bbf
00000350: feb9 fc3e 299b 653f 857f 04be 5322 af3e
00000360: d7dd 393f 1158 463f 2422 713f d87a 8c3f
00000370: 5774 25bd 5692 91be 4b43 37bf 1e09 40bf
00000380: dad6 a6bd 1558 003e 4df1 4c3e 04ea 123f
00000390: b153 83bf c10a 27bf 7a31 90bf 1616 aebf
000003a0: c9d9 103f 6724 363f 775b de3e 6d01 373f
000003b0: 7570 05be 4c14 043e 5c5d 8b3e 3a56 f93e
000003c0: f2f6 8e3d 7ea2 8abd 82f5 d33e 051e 8dbe
000003d0: 4298 97bd 589f 963d 1d78 f8bc 72a4 d03e
000003e0: fa41 3a3f e4b2 dd3e 7fba 723f 41a2 1b3f
000003f0: 00ce 043d 40ea 4f3d d202 0c3e 654a 033e

fc.bias f4 [128]
-0.40905234 -0.70967317 0.10918926 -1.3082951 -0.025519595 -0.7391727 -0.67405224 -0.43192512
0.18316172 -0.5390202 -1.0782045 -0.6919229 -0.031150986 -0.5186167 -0.25010562 -0.92321306
-0.07191869 -0.7347863 -0.11519144 -0.27229452 0.07489394 -0.6913115 -0.16419433 -1.1454804
-0.2193348 -0.6401092 0.1482523 -0.932217 -0.113374 0.37087604 -0.9920426 -0.8959759
0.03429181 -0.22484633 -0.5520983 -0.1412581 -0.13602214 1.4872868 -0.04711393 -0.5227475
0.17486237 -0.58445734 1.8251818 -0.5694487 0.13019842 -0.4816239 -0.69454587 -0.6877662
-0.14759341 -0.7598619 -0.79201543 -0.44508022 0.10697562 -0.7285297 -0.38660485 -0.20363767
-0.7480449 -0.05714759 0.6054887 -0.53063685 -0.42257813 -0.46722257 -0.5472354 -0.6266342
-0.9391277 -0.7942398 -0.61100054 -0.47086787 -0.45465174 -0.38846442 -0.69290036 -0.74430776
0.6533337 -0.5267666 -0.56966573 -0.8563846 -0.3835074 -0.99172413 -0.65887904 -0.79001665
0.033093546 -0.5100701 -0.6715776 -0.46449667 -1.060207 -0.528351 -1.4308283 -0.14982763
-0.7843424 -0.13667725 0.3020817 -0.6905364 0.13540153 -0.53498113 0.35884687 0.34478286
-0.28969726 -0.8750788 -0.46955255 -0.6597252 -0.97396636 -0.661586 -0.69718164 -0.7367878
-1.1313903 -0.83832234 -0.3934269 -0.71576583 -0.18272461 0.2991117 -0.993173 -0.74748474
-0.8468436 -0.1873604 -0.61213654 -0.46508354 -0.036771823 -0.34351364 0.29043823 -0.946669
-1.0979707 -1.0009118 -0.009120809 -0.62432903 -0.07747493 -0.37259313 -0.94021565 -0.48633775
00000000: 4f6f d1be 24ad 35bf 9e9e df3d 3776 a7bf
00000010: 780e d1bc 6c3a 3dbf b08e 2cbf 4a25 ddbe
00000020: bf8e 3b3e 3afd 09bf 9b02 8abf dc21 31bf
00000030: 5a30 ffbc 10c4 04bf d80d 80be b157 6cbf
00000040: 1b4a 93bd f41a 3cbf 7de9 ebbd 306a 8bbe
00000050: fe61 993d caf9 30bf 8f22 28be 1a9f 92bf
00000060: 4d99 60be 32de 23bf 73cf 173e c6a5 6ebf
00000070: a130 e8bd 77e3 bd3e 81f6 7dbf ad5e 65bf
00000080: 9275 0c3d 1e3e 66be 5056 0dbf f7a5 10be
00000090: 6349 0bbe 6a5f be3f 89fa 40bd c8d2 05bf
000000a0: 1f0f 333e ff9e 15bf 8f9f e93f 64c7 11bf
000000b0: bc52 053e 6897 f6be c2cd 31bf 7211 30bf
000000c0: ba22 17be 4f86 42bf 86c1 4abf 8ee1 e3be
000000d0: 0916 db3d ec80 3abf 12f1 c5be 6586 50be
000000e0: df7f 3fbf 9713 6abd 4f01 1b3f d1d7 07bf
000000f0: 295c d8be cc37 efbe 9f17 0cbf 196b 20bf
00000100: ac6a 70bf 4d53 4bbf 886a 1cbf 9815 f1be
00000110: 1dc8 e8be cfe4 c6be eb61 31bf f48a 3ebf
00000120: e140 273f 2dda 06bf 9dd5 11bf 053c 5bbf
00000130: 155b c4be a2e1 7dbf 4cac 28bf 883e 4abf
00000140: 198d 073d f493 02bf 82ec 2bbf 82d2 edbe
00000150: ddb4 87bf 0342 07bf 6225 b7bf 6a6c 19be
00000160: aaca 48bf 1ff5 0bbe 74aa 9a3e fec6 30bf
00000170: b3a6 0a3e 86f4 08bf c7ba b73e 6187 b03e
00000180: 3353 94be 2a05 60bf 3169 f0be c0e3 28bf
00000190: dc55 79bf b35d 29bf 7f7a 32bf 209e 3cbf
000001a0: 66d1 90bf 4b9c 56bf 406f c9be 6e3c 37bf
000001b0: 291c 3bbe 2b25 993e 9640 7ebf 295b 3fbf
000001c0: beca 58bf 68db 3fbe fbb4 1cbf 6e1f eebe
000001d0: 0d9e 16bd 05e1 afbe 52b4 943e e658 72bf
000001e0: 4e8a 8cbf e11d 80bf 726f 15bc 07d4 1fbf
000001f0: 2dab 9ebd 87c4 bebe f9b1 70bf 4301 f9be

conv5_1.weight f4 [1, 128]
0.1372459 -0.18348943 -0.3795544 0.7573587 -0.08621835 0.43796626 0.36779246 -1.4850757
0.52764094 0.9417867 0.2585574 -1.1962714 0.11153136 -0.2567375 -0.14344141 0.22653161
0.10573043 -2.734685 -0.083721235 -0.05983199 -0.25133002 0.07724115 0.4968695 0.41023976
-0.43831587 -0.21474326 0.65971357 0.16862677 -1.3999795 0.04323775 -0.26511112 0.27407882
-0.04323441 -0.11472252 0.6477538 -0.33359239 -0.92674065 -0.2290232 0.23196696 0.90700644
-0.5181074 1.0447044 0.2778998 -0.22984858 0.5562074 -0.84820276 -0.21336845 0.0088523235
-0.69154274 0.47497034 0.52849734 0.3335086 0.6616111 0.10746508 0.93448025 0.03404563
0.65885854 0.033806834 0.49069798 -0.45611027 -0.5148382 -0.22539608 0.21420224 0.67376655
0.46546242 0.730838 -1.4093014 0.8836159 1.1201553 -0.1111126 0.7626782 -0.23589395
-1.2840198 -1.2041194 0.042454157 0.46675876 -0.71483254 0.7536496 -0.16400021 0.41202703
0.05096799 -0.29840392 -0.8169849 0.87740463 -0.16241199 0.045558896 -1.2973357 0.5963995
0.39232853 0.35375637 -1.4860972 0.025465693 0.3620375 0.5211211 -0.027770031 0.39179286
0.11555521 0.31087288 -0.2814637 0.26714045 0.5253922 0.6386298 0.782517 0.15302148
0.74475855 0.05419653 0.3158263 0.32549125 0.14969379 1.6690859 -0.77979034 0.51122576
-0.14477432 0.15484226 0.6851842 0.4725615 -0.03654535 -0.47962356 -0.1256961 1.0615999
-0.45812234 -0.19065128 0.65534496 -0.8371103 0.1061315 -1.189978 -0.33755392 0.4303206
00000000: 308a 0c3e a7e4 3bbe f454 c2be 42e2 413f
00000010: 3f93 b0bd 1d3d e03e 4b4f bc3e f616 bebf
00000020: 7a13 073f ef18 713f a361 843e 6c1f 99bf
00000030: 8e6a e43d 1973 83be 4ee2 12be e7f7 673e
00000040: 3289 d83d 1405 2fc0 0a76 abbd 6412 75bd
00000050: 54ae 80be 9c30 9e3d ae65 fe3e f20a d23e
00000060: f06a e0be a8e5 5bbe fde2 283f 7fac 2c3e
00000070: 8732 b3bf 111a 313d a5bc 87be 0f54 8c3e
00000080: 9116 31bd a4f3 eabd 31d3 253f 9fcc aabe
00000090: e03e 6dbf 0f85 6abe bf88 6d3e 9331 683f
000000a0: b0a2 04bf e0b8 853f e248 8e3e 6d5d 6bbe
000000b0: 9c63 0e3f d123 59bf 427d 5abe 5609 113c
000000c0: f208 31bf 502f f33e 9a4b 073f a4c1 aa3e
000000d0: 585f 293f a716 dc3d 193a 6f3f 6e73 0b3d
000000e0: f4aa 283f 0979 0a3d c43c fb3e 4987 e9be
000000f0: 70cc 03bf 3bce 66be d557 5b3e f77b 2c3f
00000100: 1751 ee3e 3318 3b3f fd63 b4bf a734 623f
00000110: 4061 8f3f 018f e3bd e13e 433f 2f8e 71be
00000120: c35a a4bf 9620 9abf 69e4 2d3d 01fb ee3e
00000130: 44ff 36bf 2eef 403f acef 27be 35f5 d23e
00000140: d0c3 503d 66c8 98be ec25 51bf 979d 603f
00000150: 544f 26be f79b 3a3d 190f a6bf a3ad 183f
00000160: 49df c83e 8e1f b53e 6f38 bebf 6e9d d03c
00000170: fb5c b93e 3168 053f fa7d e3bc 1399 c83e
00000180: 36a8 ec3d bb2a 9f3e 031c 90be a2c6 883e
00000190: 1a80 063f 3e7d 233f 0953 483f aab1 1c3e
000001a0: 7fa8 3e3f 2efd 5d3d fcb3 a13e caa6 a63e
000001b0: 5449 193e 9ba4 d53f 57a0 47bf b1df 023f
000001c0: b83f 14be f88e 1e3e 3b68 2f3f 95f3 f13e
000001d0: 94b0 15bd 3891 f5be 7ab6 00be 81e2 873f
000001e0: 038f eabe 173a 43be b0c4 273f dc4c 56bf
000001f0: 795b d93d 3351 98bf ded3 acbe fb52 dc3e

conv5_2.weight f4 [4, 128]
0.31578946 -0.102539785 0.096433334 0.06092739 -0.0065974128 -0.102792665 -0.19156277 -0.077918425
0.09203259 0.08399529 0.15505472 0.049035847 0.06330963 0.033382323 0.09612224 0.15305823
0.14567074 -0.052378356 0.21536383 0.1943432 0.01676128 -0.5060462 -0.02222218 0.2343956
0.024292523 0.20631705 0.16474664 -0.33099186 0.46826708 0.06327331 0.16289884 -0.0596015
-0.24930298 0.16208367 -0.00400323 -0.37730372 0.1631471 -0.11946177 -0.3597309 0.20987435
0.05022242 0.18414916 0.2057236 0.06762492 0.01727781 -0.14083277 -0.13481414 -0.07700534
-0.20666087 0.050537564 0.074095525 0.15503283 -0.022442045 0.08011952 -0.059932668 0.19882233
-0.020870324 0.0969874 -0.19351189 0.20694686 0.040200856 -0.31421632 -0.35899127 -0.072017126
0.1611119 0.123912156 0.2777294 0.026853379 -0.25803256 -0.15539277 0.3714298 0.058146164
0.47624776 -0.053703874 -0.103482425 0.08776961 -0.102315836 -0.112602964 0.288455 0.20041767
0.015084334 0.17341867 0.00568775 -0.028104637 -0.053615052 0.09670143 -0.002146266 -0.39418724
0.01290339 -0.17606498 0.104712814 0.12983562 0.15043819 -0.20155568 0.14051037 0.28943112
0.07114874 -0.0326731 -0.04294294 -0.34791538 -0.24846669 -0.064050294 -0.03277043 -0.36816514
-0.08229884 0.03508593 -0.32953537 -0.24740678 -0.045571905 0.061439287 -0.10485695 -0.18806903
0.1574954 -0.05591059 -0.018935729 0.1615753 -0.01615929 -0.01565822 -0.041681 0.12698478
0.30052155 0.10187983 0.12288866 0.07074419 -0.09560317 0.04115249 0.042316604 -0.1848977
-0.14612332 -0.12707293 -0.23901765 0.26106647 0.29324204 -0.07114751 0.30028751 -0.29045278
0.119635426 -0.015716597 0.31857744 -0.051316306 -0.015263716 -0.3795201 -0.15425877 0.061475582
-0.025612753 -0.04185835 0.093488395 -0.15212016 -0.18337788 0.53988695 0.4354289 -0.32240623
-0.07327611 -0.11141797 0.22793598 -0.087724544 0.54412496 -0.11390125 -0.08279906 -0.026421828
-0.061003454 -0.14333571 0.07759887 -0.1680329 -0.12666173 -0.26918766 -0.07647052 0.026525471
0.29843578 0.63610494 -0.1354958 -0.13857414 0.20115642 0.17487769 -0.2465777 -0.33472416
-0.28790414 0.1933574 -0.2966836 -0.1446687 -0.056731954 -0.006774983 -0.052055474 -0.31628874
0.012883884 -0.1365981 -0.1252907 -0.046177056 -0.07730166 0.03784829 0.17456898 0.07317359
0.01838857 0.17723429 -0.020762244 0.09233105 -0.010252816 -0.5930423 0.3484593 -0.011259399
-0.029698076 -0.24858995 0.3853304 -0.021502493 -0.1678424 0.24241129 -0.2910894 -0.1343054
-0.08288166 -0.047980454 0.5337457 -0.0134637 -0.1680469 -0.36827326 -0.25048834 -0.046167903
0.10831316 -0.19474225 0.17436711 0.52795744 -0.21426775 0.2627866 -0.19859271 0.19063859
-0.28676724 0.5106185 0.2068928 0.43583238 -0.10280689 0.4919322 0.33384144 -0.11649772
0.18047917 -0.19433318 0.26437286 -0.005961094 -0.10838377 -0.23884378 -0.2907846 0.02178501
-0.06880315 -0.30002254 0.1315567 0.4010328 -0.24901351 -0.26350507 0.055330653 0.14248458
-0.19660424 -0.3517602 -0.062328793 -0.19482872 0.40624002 0.2599771 -0.11385756 0.085376486
00000000: 28af a13e 6100 d2bd d77e c53d 008f 793d
00000010: 1c2f d8bb f684 d2bd 0829 44be b293 9fbd
00000020: 957b bc3d b905 ac3d aac6 1e3e d0d9 483d
00000030: 7ba8 813d e7bb 083d bddb c43d 4cbb 1c3e
00000040: b62a 153e b08a 56bd 5688 5c3e e701 473e
00000050: f44e 893c 3e8c 01bf 4a0b b6bc 6605 703e
00000060: 1d01 c73c c744 533e 58b3 283e c477 a9be
00000070: b4c0 ef3e 7095 813d f4ce 263e b420 74bd
00000080: 4849 7fbe 43f9 253e 872d 83bb f42d c1be
00000090: 0910 273e 5fa8 f4bd a62e b8be 4de9 563e
000000a0: 06b6 4d3d 9991 3c3e 35a9 523e ef7e 8a3d
000000b0: 328a 8d3c 7736 10be b80c 0abe fab4 9dbd
000000c0: e89e 53be 7a00 4f3d 65bf 973d edc0 1e3e
000000d0: 61d8 b7bc b415 a43d f57b 75bd 1598 4b3e
000000e0: 3ef8 aabc 54a1 c63d fb27 46be e1e9 533e
000000f0: a7a9 243d f6e0 a0be b4cd b7be b77d 93bd
00000100: 85fa 243e a8c5 fd3d 8c32 8e3e 9efb db3c
00000110: d81c 84be 481f 1fbe 0c2c be3e ac2a 6e3d
00000120: bfd6 f33e 98f8 5bbd 98ee d3bd 8ec0 b33d
00000130: f78a d1bd 629c e6bd 60b0 933e 4a3a 4d3e
00000140: 4824 773c aa94 313e 4e60 ba3b b23b e6bc
00000150: 759b 5bbd 660b c63d 5ea8 0cbb e9d2 c9be
00000160: be68 533c 614a 34be ac73 d63d a1f3 043e
00000170: 780c 1a3e 9d64 4ebe f3e1 0f3e 5130 943e
00000180: 6eb6 913d 3ad4 05bd f0e4 2fbd f721 b2be
00000190: 0d6e 7ebe cd2c 83bd 493a 06bd 2480 bcbe
000001a0: 4b8c a8bd 44b6 0f3d dcb8 a8be 3458 7dbe
000001b0: 9ba9 3abd c3a7 7b3d 3ebf d6bd 2b95 40be
000001c0: 7946 213e 8102 65bd 1a1f 9bbc ff73 253e
000001d0: 7d60 84bc ab45 80bc b2b9 2abd 4c08 023e
000001e0: f6dd 993e 5fa6 d03d 0dad fb3d 54e2 903d
000001f0: 98cb c3bd 838f 283d 2d54 2d3d d355 3dbe
00000200: 5aa1 15be 681f 02be 0bc1 74be 81aa 853e
00000210: d223 963e c9b5 91bd 49bf 993e 3ab6 94be
00000220: 6b03 f53d 18c0 80bc 951c a33e 0c31 52bd
00000230: aa14 7abc 7550 c2be 03f6 1dbe d2cd 7b3d
00000240: d6d1 d1bc a973 2bbd d876 bf3d 63c5 1bbe
00000250: 69c7 3bbe 0836 0a3f 89f0 de3e 6e12 a5be
00000260: c911 96bd 1b2f e4bd 0d68 693e eda8 b3bd
00000270: c64b 0b3f 0f45 e9bd 8e92 a9bd 9772 d8bc
00000280: c2de 79bd 99c6 12be 28ec 9e3d d110 2cbe
00000290: 9db3 01be f7d2 89be 939c 9cbd f24b d93c
000002a0: 93cc 983e c6d7 223f 69bf 0abe 61e6 0dbe
000002b0: f3fb 4d3e 2313 333e dd7e 7cbe f760 abbe
000002c0: 2c68 93be 7bff 453e eae6 97be 0824 14be
000002d0: c45f 68bd ad00 debb 1f38 55bd 99f0 a1be
000002e0: ed16 533c 5fe0 0bbe 354c 00be 2724 3dbd
000002f0: 5550 9ebd cf06 1b3d 36c2 323e 09dc 953d
00000300: a0a3 963c e87c 353e 9515 aabc 1018 bd3d
00000310: 6dfb 27bc 9fd1 17bf 4269 b23e 5879 38bc
00000320: 6149 f3bc 5d8e 7ebe 074a c53e ff25 b0bc
00000330: e1de 2bbe aa3a 783e ab09 95be 5b87 09be
00000340: dcbd a9bd 2787 44bd 8fa3 083f da96 5cbc
00000350: 7d14 2cbe 508e bcbe 0240 80be 8e1a 3dbd
00000360: 4ad3 dd3d 836a 47be 4b8d 323e 3828 073f
00000370: 0169 5bbe f78b 863e e35b 4bbe c336 433e
00000380: 28d3 92be e5b7 023f b5db 533e 6c25 df3e
00000390: 6b8c d2bd 8ade fb3e 44ed aa3e 5b96 eebd
000003a0: 88cf 383e 47ff 46be e15b 873e 4855 c3bb
000003b0: 4ff8 ddbd 7793 74be b8e1 94be 7a76 b23c
000003c0: aae8 8cbd 8e9c 99be cdb6 063e 2c54 cd3e
000003d0: 66fd 7ebe 23ea 86be 65a2 623d 7ae7 113e
000003e0: 9f52 49be ea19 b4be 7a4c 7fbd 2e81 47be
000003f0: b1fe cf3e b81b 853e 272e e9bd ded9 ae3d

conv5_2.bias f4 [4]
-0.050108403 -0.1387859 -0.42519283 -0.110227816
00000000: 783e 4dbd e41d 0ebe e0b2 d9be 1fbf e1bd
